chkpt4000.pt (torch, 4831 bytes, 4 tensors)

net.0.weight f4 [64, 8]
000000 22 de 55 bc 52 30 27 bd e5 37 86 3e d4 55 ad 3e
       -0.013053449 -0.040817566 0.2621452 0.33854544
000010 20 32 3b 3d 28 cd a8 3d 3d 74 38 bc 7e e9 e0 bd
       0.0457021 0.082422554 -0.011258182 -0.10982035
000020 55 8b 90 be b8 eb d1 3e 6e 18 8d be 25 b7 68 3e
       -0.28231302 0.41000152 -0.275577 0.22726114
000030 2f e8 00 3e 1b 78 39 be 47 31 c4 3d 50 b5 8e be
       0.12588571 -0.18112223 0.095797114 -0.27872705
000040 a0 2a 51 3e 7b 95 0f 3e 79 37 b2 3e eb 82 8d be
       0.20426416 0.14021866 0.34807947 -0.27638945
000050 ef 77 01 bf d9 fa 19 bf 1e ac 1b bc 03 98 b1 be
       -0.5057363 -0.6014839 -0.009501485 -0.34686288
000060 56 6d 1b 3e f0 1b 4a be 7d 52 0e be fe ab a6 3d
       0.15178427 -0.1973722 -0.13898654 0.08138274
000070 5c 3f 9d 3d b3 4b ae bd de d6 ec 3d 3c d0 b6 be
       0.076781005 -0.08510532 0.1156442 -0.35705745
000080 88 02 f6 3b 25 7b 00 bc eb 92 59 bd 44 07 ec be
       0.007507626 -0.00784186 -0.053118628 -0.46099293
000090 26 b3 75 bd 53 e6 05 3d d6 ec ad 3e 66 99 b5 3b
       -0.059985302 0.032690357 0.33969754 0.005541968
0000a0 5e 1c 2d bd 96 b1 88 3d 41 8e e7 bb 3f e9 cc 3d
       -0.04226338 0.06674497 -0.0070665185 0.10005426
0000b0 92 9b 18 3d 1d ba 00 be 9b f0 da bd 08 70 a6 be
       0.03725774 -0.12570997 -0.10690423 -0.32507348
0000c0 14 37 a1 be 52 6f 21 bd 64 88 e2 be b3 36 85 3e
       -0.31487334 -0.039412804 -0.44244683 0.26018295
0000d0 1c 2c c6 3e 39 d0 6d 3e 6e 40 6d be a3 9c 92 3d
       0.38705528 0.23223962 -0.23169109 0.07158782
0000e0 73 37 81 bc 8a 42 5c be 41 ea c0 3c c5 73 19 3e
       -0.01577351 -0.21509758 0.023549201 0.14985569
0000f0 7c 07 a4 be 4a f2 bd 3d 75 80 6d 3c d4 9c 18 3e
       -0.3203696 0.092747286 0.014495959 0.14903575
000100 5d 81 ed 3c 70 8a 14 be 8d 4c 82 be fe c9 23 3e
       0.02899235 -0.14505935 -0.2544903 0.15995023
000110 49 70 9d 3d 9f 91 f4 3d e1 27 3d be 84 a4 3d 3e
       0.07687432 0.119418375 -0.18472244 0.18519789
000120 52 52 a9 3e a6 d6 b9 bd ed ad dc 3e 3b b5 85 be
       0.33070618 -0.09074144 0.43101445 -0.2611483
000130 a0 41 9e be bb 1f 56 be ca a9 35 3e 76 b4 cd 3e
       -0.30909443 -0.20910542 0.1774055 0.40176743
000140 29 56 c5 3e ca 2f 46 be 42 49 86 bd b7 4a 9f be
       0.38542297 -0.19354168 -0.065569416 -0.3111169
000150 67 c5 10 3f 85 1c 0d be 41 6f 64 3e 77 6d 6a 3d
       0.5655121 -0.1378041 0.22308065 0.0572333
000160 39 63 ea 3d 6c 80 52 bd 2a 30 3e be 11 8b 80 3e
       0.114447065 -0.051392004 -0.1857306 0.251061
000170 ee 5f ab 3e 96 4a c4 bd 53 f5 c2 3e 05 16 80 3e
       0.33471626 -0.09584539 0.38077793 0.250168
000180 81 d0 8d be 6b 13 ff 3e 9c e2 f2 bd 77 b0 25 3e
       -0.27698138 0.49819502 -0.118596286 0.16180597
000190 0f 7d 2f bd 63 dc f5 3e ce 7e 17 bd 84 5a 66 be
       -0.042843875 0.48019704 -0.036986165 -0.22495466
0001a0 2f 19 e6 bd 27 4e c7 be 03 c0 b5 bd 07 ed 7e 3e
       -0.11235272 -0.38926813 -0.08874514 0.24895106
0001b0 2a 7e 90 3e 5c 53 2d 3d 00 df 98 3e b1 a2 ba be
       0.28221256 0.042315826 0.29857635 -0.3645225
0001c0 10 4b 1e be 69 b1 ba 3c 5d 04 54 bd 19 1d 8a 3e
       -0.15458322 0.022789674 -0.051761974 0.26975325
0001d0 59 30 5f bd 0f 53 70 3d de 8f 47 be 1f 63 c8 bd
       -0.054489467 0.05867296 -0.19488475 -0.09784531
0001e0 9c 4d 8c 3d 60 97 91 3e 45 58 b6 3e 5d 28 3f be
       0.0685074 0.28435802 0.3561422 -0.18667741
0001f0 a4 bd 3a bd 63 99 15 bf ac fc 88 3e 55 af d2 be
       -0.04559101 -0.58437175 0.26755273 -0.41149393
000200 a4 e4 84 3d 08 65 18 3d f1 3c 0c bf ec ca a1 be
       0.06488922 0.037205726 -0.5478049 -0.3160013
000210 0c 79 13 3f d3 fe 1f 3f 6b fd 9a 3e 48 d3 00 3e
       0.5760658 0.62498206 0.30271468 0.12580597
000220 1c 74 30 3e 1c f7 58 3e 2b 28 4a bc 54 ea 1c 3e
       0.17231792 0.21188015 -0.012338678 0.15323764
000230 15 1d 2c bf 32 89 28 bf 38 63 44 be 3d 8e 54 be
       -0.67231876 -0.65834343 -0.19178474 -0.20757385
000240 c1 94 ab 3d d7 6a e1 bd f7 a2 67 bd db 8a d8 be
       0.08377982 -0.11006706 -0.0565519 -0.42293438
000250 a8 62 8e be c8 2f f2 be 30 6a e2 3e c2 a6 c1 bd
       -0.27809644 -0.4730208 0.4422164 -0.09455635
000260 2f 4e e1 be 55 34 89 3e 0a 84 61 be ed c9 04 3f
       -0.44004962 0.2679774 -0.22023025 0.51870614
000270 51 a5 3c bd d7 4b b8 3e d9 f9 87 be cb cd 52 be
       -0.046056096 0.3599536 -0.26557806 -0.20586316
000280 41 2b 73 be 3a a5 f2 bd db 5b b3 bd e6 18 ba bd
       -0.23746969 -0.11847921 -0.087577544 -0.0908678
000290 d3 63 93 be b0 cd 6f be d4 1c 45 be 0c 13 28 3e
       -0.28787097 -0.23418307 -0.19249278 0.16413516
0002a0 94 0c 0b 3e ad e4 a2 3e 30 76 65 3e 8d 33 b5 3e
       0.13579017 0.3181509 0.22408366 0.35390893
0002b0 da d4 3d 3e a8 3f 25 bd 92 41 13 be f5 7c 93 be
       0.18538228 -0.04034391 -0.14380482 -0.28806272
0002c0 bd 0a 59 bd d5 0a ff 3d a7 45 5b 3e 58 66 ac be
       -0.052988756 0.12453238 0.21413289 -0.33671832
0002d0 7b b0 2a bf fc 63 1e bf 27 09 49 be 2a 1d 6e 3e
       -0.6667554 -0.61871314 -0.19632398 0.23253313
0002e0 11 a6 c0 3e 19 51 7f 3e 08 f8 cb 3d db ec e9 be
       0.376267 0.2493328 0.099594176 -0.4568852
0002f0 e5 df 21 3e 36 4c f2 3e 3c de 9e 3b 54 1c 16 3d
       0.15808065 0.4732377 0.0048482697 0.03664811
000300 53 c0 44 3e 37 3d 92 3e b3 14 03 bf 5c c7 9a be
       0.19213991 0.28562328 -0.5120346 -0.30230224
000310 4b c3 74 3e eb ca 4e 3e 94 4f f5 3e 5b 05 05 3d
       0.23902623 0.20194595 0.47912276 0.03247581
000320 42 24 f0 3d 5e 65 c1 bd 29 0b 44 be 17 34 00 be
       0.11725666 -0.094431624 -0.19144882 -0.1251987
000330 90 ce a3 bd ef 27 a2 3e 3c b5 32 be c9 a3 12 bd
       -0.07998383 0.31671092 -0.17451948 -0.03580073
000340 44 23 ff 3c ba ff 2a 3e 6c 34 84 3e ce 52 df 3d
       0.031144746 0.16699114 0.25821245 0.109044656
000350 57 23 36 bf b8 c7 0b bf 19 84 34 bd 84 fa ce bd
       -0.71147674 -0.5460162 -0.04407129 -0.10106376
000360 99 1a 2e 3e ae 18 ea be f5 46 47 bd 9d cd 6a bc
       0.17002334 -0.45721954 -0.048651654 -0.014331249
000370 22 e4 b0 3d 47 51 7e be de 2d 08 3f dc bb ac 3e
       0.08637263 -0.24835692 0.5319499 0.33737075
000380 5d f9 8b be cf 4d 7e be a6 e1 34 be 9b 77 b2 bc
       -0.27338687 -0.24834369 -0.17664203 -0.021785548
000390 fc 1c 65 bd 99 fc 4d 3e 60 f9 66 3e e0 48 5c be
       -0.055935845 0.2011589 0.22556067 -0.21512175
0003a0 3c 6a 87 be e9 61 b8 bd 89 28 c2 bd c2 78 4f be
       -0.26448238 -0.0900305 -0.09480388 -0.20260909
0003b0 bf ac 9e 3e 12 6d 83 3e 0a 19 69 3e af 6f ae 3d
       0.3099117 0.25669152 0.22763458 0.08517396
0003c0 e4 0d 8e 3d a4 70 16 be 84 09 a0 3e cd a2 fd be
       0.06936243 -0.14691406 0.3125726 -0.4953827
0003d0 be 9a cf be 54 8a 0f 3e 9c 52 7b 3d de 6b 10 3e
       -0.40547746 0.14017612 0.06135808 0.14103648
0003e0 cc a9 80 be 30 f5 bd bd 95 6d 07 3e 42 0c 3d 39
       -0.25129545 -0.092752814 0.13225396 0.00018029011
0003f0 71 02 74 be da 93 00 3e 3b d1 bd be e3 57 e5 bc
       -0.23829056 0.12556401 -0.37073693 -0.02799601

net.0.bias f4 [64]
000000 ec 96 82 be 23 8c ab 3d ba df 6e bd 31 c5 86 3d
       -0.2550577 0.08376338 -0.05831883 0.0658058
000010 ce f7 b0 3d 88 5b 80 be 41 db 98 3e f6 b3 4d be
       0.08641015 -0.25069833 0.29854777 -0.20088181
000020 71 87 61 be a1 9d 2e 3e a3 2f aa 3e c2 30 1c be
       -0.22024323 0.17052318 0.3323947 -0.15252975
000030 17 02 30 be dd 27 40 be 06 5a 8c be 6f 84 c4 bd
       -0.17188297 -0.18765207 -0.27412432 -0.09595572
000040 40 0f 75 3e f4 f5 c6 3d b9 71 b5 3e 45 15 97 3e
       0.23931599 0.097148806 0.35438326 0.29508415
000050 c3 97 a1 3e c3 e3 af bd dd 5a 8e 3c 51 90 94 3e
       0.31561098 -0.08588364 0.017377311 0.29016355
000060 73 27 df 3d f1 ad aa be 26 d8 9d 3e 3a 9f fa bd
       0.10896196 -0.33335832 0.3082897 -0.12237401
000070 e6 b2 6c be 1e 3a 3a 3e 71 46 59 3e 7b 35 13 be
       -0.2311512 0.18186232 0.21218278 -0.1437587
000080 da de a6 3e 39 dd 0f 3e 32 20 1c be b5 72 5e be
       0.32591897 0.14049233 -0.15246657 -0.21723445
000090 65 be b3 3b c6 fa 42 3e ec ec ac 3e 24 ed a8 be
       0.0054853433 0.19040975 0.33774507 -0.32993424
0000a0 f5 37 b6 bd 77 00 4f 3d 17 09 0f bd 5c 18 b4 be
       -0.08897392 0.050537553 -0.034920778 -0.35174835
0000b0 54 43 3b 3e 9e 75 ff 3d cf 4b d7 3d a4 20 0b be
       0.18287402 0.124736056 0.10512506 -0.1358667
0000c0 6d 00 e8 3d 4a 3d 5c be c7 fe 61 3d ed 77 04 3d
       0.11328206 -0.21507755 0.055174615 0.032340933
0000d0 ce 9f d8 3c 24 4f 98 be 42 47 e3 bd 1f 6d 2e 3e
       0.026443388 -0.2974788 -0.11097576 0.17033814
0000e0 2d c6 2e bd f5 43 d9 3d 28 98 a0 3e 56 f6 a0 bd
       -0.042669464 0.10608665 0.31366086 -0.07859485
0000f0 10 54 b5 3d 13 90 88 3e d4 9c a6 3e cf 17 6b be
       0.08853924 0.2667242 0.32541525 -0.22958301

net.2.weight f4 [4, 64]
000000 8c 80 d3 3d 2a 0d 12 3e 9d 00 a7 bd 47 3a 0d be
       0.10327253 0.14262834 -0.08154414 -0.13791762
000010 e9 d6 45 be 8f 23 d9 bd 69 d1 31 3d 88 f4 88 3d
       -0.19320263 -0.106024854 0.0434126 0.06687266
000020 e5 20 3b bc c6 3e 3b be 00 b1 74 be 90 19 11 be
       -0.011421417 -0.18285665 -0.23895645 -0.14169908
000030 85 d4 86 3e b9 34 2a bd ae 89 53 3d 66 64 51 bd
       0.26334015 -0.041554186 0.051644973 -0.051121138
000040 b4 c1 56 3c 99 6d 45 3d 29 c6 fd bd ae e6 7e 3d
       0.013107706 0.048200224 -0.12391312 0.062231712
000050 be 87 01 be 15 e0 6e 3e 0c fc cc bd 76 90 a4 bd
       -0.12649438 0.23327668 -0.100090116 -0.08035366
000060 8e af e4 3c e8 fc 0d 3d f6 d6 ea bc 41 7f 74 be
       0.027915742 0.03466502 -0.028666954 -0.23876669
000070 6e 52 83 bd 83 62 6c bd 32 3f 39 bc 63 2d 18 3d
       -0.064122066 -0.057711136 -0.011306571 0.03715266
000080 d2 db 79 be 36 f7 ad bd bb ba d6 3d de 87 23 3d
       -0.24400261 -0.08494417 0.10484835 0.039924495
000090 6d 45 93 bd 4b 38 1b 3e a4 0e 09 3d 87 a0 6d 3d
       -0.07190976 0.15158193 0.033461228 0.05801442
0000a0 3e 17 38 be 68 0e 00 be aa 4a ae 3d f3 10 f2 3d
       -0.17977616 -0.12505496 0.08510335 0.11819639
0000b0 a3 b7 19 3d a3 e7 10 be 2e f0 13 3e f8 13 e0 bd
       0.037528645 -0.14150862 0.1444709 -0.10941309
0000c0 c2 22 d4 3d b7 1f 3c 3c b9 98 41 bd 0b 13 f9 3c
       0.10358192 0.011482171 -0.04726479 0.030404588
0000d0 c9 c9 59 3c 9b 9b af 3d 03 08 fd bd 02 7b 93 bd
       0.013292738 0.08574601 -0.12355044 -0.07201196
0000e0 e2 a3 03 3e 74 8f b0 bd c5 c3 42 be 69 e4 2e bc
       0.12855485 -0.086211115 -0.19019993 -0.010674574
0000f0 31 7c 8c 3c 10 f0 55 3d ae f2 33 be 8c 92 a2 bd
       0.017149063 0.052230895 -0.17573044 -0.07938108
000100 b6 7d 01 be dd 06 89 bc f1 9d 34 3e ea 0a 41 3d
       -0.12645611 -0.016726905 0.17638375 0.04712955
000110 e2 42 ad bd 5d f5 b5 3d 81 c5 bf 3d d0 40 72 bc
       -0.084600225 0.0888469 0.09363843 -0.01478596
000120 f3 c9 9c bc 3e e6 b0 3d 26 d9 4a be f6 5f f5 ba
       -0.019139266 0.08637665 -0.19809398 -0.0018720615
000130 09 f3 db bb 92 f6 3d 3d b3 11 ce bb bf f7 7e 3d
       -0.0067123217 0.046377726 -0.006288731 0.062247988
000140 6f e8 5c be 28 73 d6 3e 4e 0a 81 3d 2f 97 ad bd
       -0.21573041 0.41884732 0.063007936 -0.084761016
000150 b2 93 50 3e 66 7d 73 bd f4 14 99 3e 3f 9f d3 bd
       0.20368841 -0.05944576 0.29898798 -0.10333108
000160 fb 17 14 be ee 75 01 3d 82 63 71 3e 6c 6d c3 bd
       -0.14462273 0.031606607 0.23573115 -0.09542355
000170 f6 27 11 3c 7f 06 20 bd ad d2 45 bd aa 70 0a bd
       0.008859625 -0.039068695 -0.04829662 -0.03379885
000180 ca 84 30 be f7 c4 e9 3d 51 78 83 3e 1e 85 78 be
       -0.17238155 0.11414521 0.25677732 -0.2426953
000190 97 67 8a 3d 38 ef 48 3e 27 ef 9f 3d 4d 4f bc bb
       0.067580394 0.19622505 0.078092866 -0.005746758
0001a0 99 7a 85 be 0e fd 82 3b 15 ab a7 bd 98 f1 1a bd
       -0.26070097 0.0039974516 -0.08186928 -0.037828058
0001b0 b0 62 8e bd b2 7e 86 be ac c8 37 bd f2 4d a9 bb
       -0.06952417 -0.26268536 -0.04486911 -0.0051667625
0001c0 72 d5 e6 3d 23 02 95 3d ce e1 83 3e 2f 3b ec bd
       0.1127118 0.07275798 0.25758213 -0.11534726
0001d0 1f ab 8d 3e 85 90 a1 bd 99 53 1b 3e 82 2c 4d be
       0.27669618 -0.07888893 0.15168609 -0.2003651
0001e0 e8 4d 7e 3d 4d 4a b4 bd 55 b4 bf bc 42 fb c6 bc
       0.062086016 -0.08803234 -0.023401419 -0.024289731
0001f0 64 79 5e bd ca 8e c7 bd 16 31 86 be 37 81 4b 3d
       -0.054314986 -0.09744032 -0.26209325 0.049683776
000200 4d df 19 3c 58 c5 30 be 9d e4 2c 3d 99 6b 09 3e
       0.009391618 -0.1726278 0.04221021 0.13419951
000210 06 b7 9c 3e aa 19 eb 3d fe 5a 0c 3c 8b 49 d0 bb
       0.30608386 0.114795044 0.008566616 -0.0063564233
000220 c3 6c 86 bd c6 7e 3d 3e 84 8e 50 3e 8b cf c0 3d
       -0.065637134 0.18505391 0.20366865 0.09414586
000230 b8 96 63 be b3 84 1b 3e a4 8a 3e 3d 6a 2f 9c bd
       -0.22225463 0.1518734 0.046518937 -0.07626231
000240 77 6e da 3d 61 48 de bd ed b2 95 3e 61 97 82 be
       0.10665601 -0.10853649 0.29238072 -0.25506118
000250 08 bf 1c 3e 43 de 96 bd 8b a6 04 3e 07 f3 3e 3e
       0.15307248 -0.07366612 0.12954156 0.18647395
000260 54 7a 3d 3e 72 7b 96 bd 09 be d8 3c 2c 7a 49 3e
       0.18503696 -0.07347764 0.026457803 0.19675511
000270 83 46 32 bd 58 0c 3f 3d 89 30 62 3e 01 63 e4 3d
       -0.043524276 0.04664263 0.22088827 0.11151696
000280 27 7e 71 3e c7 af 22 3d e0 56 24 be de a3 3e bd
       0.2358328 0.039718416 -0.16048765 -0.046542995
000290 5e 7e c3 bd b1 96 15 bd 4b a8 a6 3d 9a 7e b7 bd
       -0.09545587 -0.036520664 0.08137568 -0.08959694
0002a0 2b 95 53 3e 3a 85 f9 bc 25 58 fa 3d 7f 87 46 3d
       0.20662372 -0.030459035 0.122238435 0.048469063
0002b0 bd 46 5f be a2 8d f1 3d cf 5b 06 be f4 8d f9 bc
       -0.21804328 0.117945924 -0.1312096 -0.030463196
0002c0 bf d7 34 bd c2 5e 5e 3d 87 b5 10 3e 61 c4 8b bd
       -0.044151064 0.054289587 0.14131747 -0.06824566
0002d0 5e c5 f8 3d 5f e2 14 3b 03 d9 73 3d 97 e1 00 3e
       0.1214702 0.0022717935 0.05953313 0.12586056
0002e0 8f 66 7b be 80 35 12 bc 26 b1 a6 3e 17 89 93 bc
       -0.24550842 -0.008923888 0.3255703 -0.018009705
0002f0 39 ad 3e 3e 0d ac 54 bc 1c c2 06 3e 59 e6 99 bd
       0.18620767 -0.012980473 0.13159984 -0.075146385
000300 f6 ed 5b 3d e7 de c4 3d 58 e2 09 be a8 d2 27 bb
       0.053693734 0.09612828 -0.1346525 -0.0025607739
000310 2f 48 09 bd fb 49 b4 3d 7c 72 50 3e a8 69 eb 3b
       -0.033516105 0.08803173 0.20356172 0.007184226
000320 c8 60 ab 39 76 c1 87 be 70 4f bc 3d f8 46 c7 3d
       0.0003268777 -0.26514786 0.09194839 0.09730333
000330 39 07 73 3e 8f 85 f9 bd 32 f0 4e bd a2 51 b6 bd
       0.23733224 -0.121836774 -0.050522037 -0.08902289
000340 94 45 51 3e 66 bb 90 be c2 e0 46 be 7c 89 8e bc
       0.20436698 -0.28267974 -0.19421676 -0.017399542
000350 16 e2 9f bd 01 07 ae 3d 49 d1 b9 be 88 2d 37 3d
       -0.07806794 0.0849743 -0.36292484 0.044721156
000360 91 ac 46 3e b6 99 7d bd 1d d5 86 be 9e fd 4b 3e
       0.19401766 -0.06191417 -0.26334468 0.19920966
000370 80 45 b7 bd 87 ba 32 3e dc 3e 98 be f5 f5 36 3d
       -0.08948803 0.17453967 -0.29735458 0.044668157
000380 b8 25 61 bb 5c b4 8f bd cf d2 f6 bd 75 64 35 3e
       -0.0034354758 -0.07016823 -0.12051927 0.17714103
000390 77 cd f8 bc 41 b5 a0 bc 02 ba e4 bd ff bb 7d 3d
       -0.03037141 -0.019617679 -0.11168291 0.061946865
0003a0 be 87 89 3e 40 b1 8f 3d 2b b9 80 3d f9 cc b6 bd
       0.26861376 0.0701623 0.06285318 -0.08925814
0003b0 51 52 df 3c 59 34 a0 3d 6d 48 43 3e cb fb ba 3d
       0.027260931 0.078224845 0.19070597 0.09130057
0003c0 0e 92 1b be f8 2b 0a 3e 2f 7f 6b be 90 75 60 3d
       -0.15192434 0.13493335 -0.22997735 0.054799616
0003d0 cf ff 86 be 7d c2 13 3c ae d6 82 be 9c 15 3f 3d
       -0.2636704 0.009018538 -0.25554413 0.046651468
0003e0 54 5f d3 bd ce 4d fe bd 84 6b 35 be b4 21 9a 3a
       -0.10320917 -0.12417184 -0.17716795 0.0011759312
0003f0 1f 0d 29 3c b7 97 8f 3e 8b 6c 04 3e 4d c6 f7 3d
       0.01031807 0.28045437 0.12932031 0.1209837

net.2.bias f4 [4]
000000 37 b2 4d bc 60 21 94 3d 8f 9c d0 3d 97 bd 60 bd
       -0.012554697 0.07232928 0.10186111 -0.054868307
