chkpt1000.pt (torch, 4831 bytes, 4 tensors)

net.0.weight f4 [64, 8]
00000000: 793b 05bd 0dd3 31bd 9ed2 693e 77cb a23e
00000010: 5b30 313d 9022 153d 10f2 55bd 0030 b1bd
00000020: c075 12be f038 be3e ad76 83be 4c04 023e
00000030: 43ab b43d f02b 7ebe 4571 613e 7727 63be
00000040: 73ee df3d b256 3c3e 659c 893e 8a9b 6ebe
00000050: d1fc 5cbe 37d5 97be b673 cbbc 3a88 77be
00000060: ec3c 1b3d 9b02 d7bd a5e9 82bd 39c7 503e
00000070: 4294 483d 281b a8bd 449d c23b f346 acbe
00000080: f962 80be 10e4 e1bc e1bc b6bd 66f7 6cbe
00000090: a79c e8bd e4fd 22bd 1a9a f03d 7e8a 2bbe
000000a0: 206d 2abd 3f50 863d 10e0 dcbb c173 cb3d
000000b0: 27a6 173d ef4b 01be 3c74 dabd 0870 a6be
000000c0: 7216 adbe b101 67be 5d04 9ebe 7f09 893e
000000d0: 4d75 9a3e c84c 6f3e 34d5 3ebe 90cf 8b3d
000000e0: 2beb 683b a3e2 5dbe 0225 f43c c451 153e
000000f0: 8e0e a9be af53 b13d 0044 9c3d 8f55 863e
00000100: 50ea 633b 4554 39be 4079 73be 52b2 223e
00000110: aff8 b43d 7353 033e 24da 04be 8cf2 833e
00000120: 8fa8 3b3e 7f1c 85bd ed9e bb3e 6a20 19bd
00000130: 9e3c f4bd 1675 66bc 2792 99bc 523c a63e
00000140: a8fe 833e 68f8 66be eee6 653d a33d 0ebe
00000150: 1f44 ce3e 3a07 99be 604f 67bc 092b 0fbe
00000160: 6e85 693d e4dd a8bc 1d01 46be 94d8 5b3e
00000170: 8318 b13e fe3d 7abd 1282 773e 9f29 393e
00000180: 7f49 9ebe 7b41 b23e 6ef5 edbd d622 333e
00000190: c2a2 84be 3a96 a73e 9fd2 d33d 1f92 59be
000001a0: a758 3fbe 0243 a5be c8d6 8bbd d4a4 6c3e
000001b0: 4f67 803e ddf4 1e3d e28f 463e 8c8d c1be
000001c0: b758 1ebe ad1e bb3c fd3a 54bd 4a16 8a3e
000001d0: b9f9 5ebd af89 703d de8f 47be d047 c8bd
000001e0: 340e c53d 3169 a73e e379 9c3e 4b7c 92be
000001f0: 56bb 003e 6f80 c4be b7bd ab3e b7cd a4be
00000200: eaff 013c 88a0 8d3c 46d2 a6be e892 67be
00000210: 3720 9c3e 8ecd b23e b425 653e 3b05 cd3c
00000220: bcea 8d3d 68e5 093e 855d 74be 89c7 843e
00000230: 59e8 a9be a8e4 aebe 9276 aebd 97bd e8bd
00000240: 3ac3 81bd 0f21 5dbd 7d3d 30be f1c3 8fbe
00000250: 065f 21be 8f1e bfbe 1705 8c3e cd1c 50be
00000260: 1dc4 8fbe bcd2 623e b7ce 14be 3270 c13e
00000270: 76df 13be 9b27 873e 73eb f1bd bc21 2fbe
00000280: a676 9abe 1521 2dbd 3427 11be cf66 f2bc
00000290: a44b 16be a5e9 afbd e97f b5be 70d9 e43d
000002a0: 8413 173e 438a 893e 2a8d 5c3e 115c bc3e
000002b0: ac96 c63d 0eba 15be 6398 e1bd 4d32 98be
000002c0: 31cb 2cbe bf1a fc3d 824c 9d3d 4de0 7cbe
000002d0: e446 c4be 4b84 98be 43ef 60be 8680 523e
000002e0: d8df 783e 7c36 933e 4e1e 243e 1225 8dbe
000002f0: 470d 883d b778 c13e d580 6cbe 0cd5 e1bd
00000300: 0e34 dd3d 4e3e 923e d886 c9be 9018 31be
00000310: 6861 093d b6be d8bc 0e5c ac3e 4246 03be
00000320: b16a ec3d d7c6 c0bd 77b6 50be 40e3 fdbd
00000330: 0052 9ebd c9a9 a23e 7c45 4bbe e5d0 94bc
00000340: d369 a0bc 3a81 3a3e 2528 fa3d 1a30 2d3e
00000350: 099b e8be f736 8abe eec9 6d3b 98c8 a8bc
00000360: b6ea 043e 46b6 abbe 0020 dbbb d796 b03d
00000370: 6efe eb3d e48b 7bbe 6967 973e b401 073e
00000380: 8763 86be 60bf 73be 0d75 5fbe e0a3 1abd
00000390: ae1c 34bd d2b1 743e a5e0 4c3e 6258 2fbe
000003a0: 4ca5 86be 3348 2dbe e48e f33c eab0 6bbe
000003b0: cd71 6a3e a982 463e c295 363e c4e3 5b3d
000003c0: 8735 54bd e86f 21be 8b2a 753e 986d b9be
000003d0: e60b b2be 84a9 4d3e 62df 0ebd 87ab 8f3d
000003e0: d32b 8bbe 3eab 9bbd 81f9 1e3e 2749 dcbb
000003f0: fcab 8abe 0596 9e3d 371b b9be 90c5 913c
-0.03252742 -0.043414164 0.2283425 0.31795856 0.043259006 0.036409914 -0.052232802 -0.086517334
-0.1430273 0.37152815 -0.2567648 0.12696952 0.08821728 -0.24821448 0.22015865 -0.22183023
0.109341525 0.18392447 0.26877132 -0.23301521 -0.21580817 -0.29654858 -0.024835449 -0.2417306
0.037899897 -0.10498544 -0.063922204 0.20388497 0.048969515 -0.08208305 0.0059391577 -0.3364788
-0.2507551 -0.027574569 -0.089227445 -0.2314125 -0.11358004 -0.03979291 0.117481425 -0.1675205
-0.041607976 0.065582745 -0.0067405775 0.09934188 0.03702369 -0.12626623 -0.10666701 -0.32507348
-0.33806187 -0.22559239 -0.30862704 0.26765057 0.30167618 0.23369133 -0.18636018 0.06826699
0.0035540562 -0.21668486 0.029802803 0.14581972 -0.33018917 0.086585395 0.076301575 0.2623715
0.0034777112 -0.18098553 -0.23776722 0.15888336 0.08836495 0.12824802 -0.12973839 0.25770986
0.18326019 -0.06499576 0.36644688 -0.037384428 -0.11925624 -0.014066001 -0.018746449 0.32467896
0.25780225 -0.22555697 0.056128435 -0.138907 0.40286347 -0.29888326 -0.014118046 -0.1398126
0.057012014 -0.020613618 -0.19336362 0.21469337 0.34589013 -0.061094277 0.24170712 0.18082283
-0.30915448 0.34815583 -0.116190776 0.17493758 -0.25905424 0.327318 0.10342907 -0.21247147
-0.18686162 -0.32277685 -0.06828076 0.23109752 0.25078818 0.03880774 0.19390824 -0.37803304
-0.1546353 0.022841776 -0.051814068 0.2697013 -0.054437373 0.058725055 -0.19488475 -0.09779322
0.0962185 0.32697442 0.30561742 -0.28610453 0.12571463 -0.38379237 0.33543178 -0.32188198
0.00793455 0.017288461 -0.325823 -0.22614634 0.30493328 0.3492245 0.22377664 0.025026908
0.06929538 0.13466418 -0.238638 0.25933483 -0.3318508 -0.34158826 -0.08518709 -0.113642864
-0.06336065 -0.053986605 -0.17210956 -0.2807918 -0.15758905 -0.37328002 0.27347633 -0.20323487
-0.2807931 0.22150701 -0.1453198 0.3778091 -0.14440712 0.26397404 -0.118124865 -0.17102712
-0.30168647 -0.042267878 -0.14175111 -0.029590039 -0.14677292 -0.08589486 -0.3544915 0.111742854
0.14753538 0.26863298 0.21538225 0.3678899 0.09696707 -0.14621755 -0.110153936 -0.29725876
-0.16874386 0.12309789 0.07680608 -0.24694939 -0.38335335 -0.29788432 -0.21966271 0.2055684
0.2430414 0.28752506 0.16027185 -0.27567345 0.066431575 0.3778741 -0.2309602 -0.110269636
0.10800944 0.2856316 -0.3936069 -0.17294526 0.03354016 -0.026458126 0.33663982 -0.1281977
0.11543787 -0.09412926 -0.20382105 -0.1239686 -0.07730484 0.3177016 -0.19850725 -0.018166015
-0.01958171 0.18213359 0.12214688 0.1691288 -0.45430782 -0.2699506 0.003628369 -0.020603463
0.1298016 -0.335375 -0.0066871643 0.086225204 0.11523138 -0.24565083 0.29571083 0.13184243
-0.26247808 -0.23803473 -0.21821995 -0.03775394 -0.043972664 0.23895958 0.2000757 -0.17123559
-0.26297987 -0.16922073 0.029731221 -0.23016706 0.22894974 0.1938578 0.17830566 0.05368401
-0.05180886 -0.15765345 0.2394201 -0.36216426 -0.34774703 0.20084196 -0.034881003 0.07015138
-0.27181873 -0.07601021 0.15524866 -0.0067225876 -0.2708434 0.07743458 -0.36153576 0.0177944

net.0.bias f4 [64]
00000000: 4295 8cbe 9622 e83d e1f4 d4bd eebd 50bd
00000010: 62ad debd 0d1f 80be b2e9 8b3e 6ef4 25be
00000020: 1898 1abe 3b92 8e3c adf2 803e 9100 50be
00000030: dfd3 a2be ef8a 69be 3753 8cbe 6d70 64bd
00000040: de16 7b3e 5818 05bd 265d 903e aab4 af3e
00000050: 2fbc 9a3e 12c3 00be 8026 a3bd e88e 773e
00000060: 53d0 9c3d 9a1e acbe 56a8 783e 1026 65be
00000070: e8ed 4dbe d942 4e3e d439 893d 88f1 c6bd
00000080: 3f14 e83d d257 f33d b873 65be 2166 9ebe
00000090: bd1d b43c 172c 3c3e 1edc a93e 239b 94be
000000a0: 6268 82be 8158 a43d d202 39bd 8b20 abbe
000000b0: 5571 5e3e 2a4d d4bc 37d7 0d3e c06a 05be
000000c0: 63d8 ce3d 5d6e 60be 8c97 a2bc 47ee 743c
000000d0: b3ea 04be 71df 9ebe 1b1d 3fbe c096 283e
000000e0: d927 c3bd 2c3d 6f3c f139 523e 7725 1fbd
000000f0: 32b9 523d 6006 9e3e 595c 9b3e 9890 7fbe
-0.27457625 0.11334722 -0.103982694 -0.05096238 -0.10872914 -0.2502369 0.27326733 -0.16206524
-0.15097082 0.017403712 0.25185147 -0.20312716 -0.3180227 -0.22806905 -0.27407238 -0.05577128
0.24520442 -0.03249392 0.28196067 0.34317523 0.30221698 -0.12574413 -0.07966328 0.24175608
0.07656922 -0.33617097 0.24282965 -0.22377801 -0.20110285 0.20142688 0.06700483 -0.09714037
0.11331987 0.11881985 -0.22407424 -0.30937293 0.021986837 0.18376194 0.3317575 -0.2902461
-0.25470263 0.08024693 -0.045168705 -0.33423266 0.2172292 -0.025915701 0.13851629 -0.13029003
0.10099866 -0.219171 -0.019847654 0.014949388 -0.12980156 -0.31029847 -0.18663447 0.16463757
-0.09529085 0.014601987 0.20529915 -0.03885409 0.051446147 0.3086424 0.30343893 -0.24957502

net.2.weight f4 [4, 64]
00000000: b6d8 ba3d 570d cd3d 750f 76bd ade3 06bd
00000010: ce61 f2bc 876e dabd 9620 0a3d c943 a93d
00000020: 6200 1bbb c822 d4bd b839 23be 5ee6 5bbd
00000030: 2506 fe3d ab32 87bd 0e53 533d 7b3b 5bbd
00000040: 7b1f 1c3d 2cab 2c3d daea 15bd aca6 87bc
00000050: 805e c9bd 27ae 1f3e cabe 3abd 9ed2 b1bd
00000060: bae0 473d aa27 a73c a802 14bd 36f2 98bd
00000070: 2989 ebbd 5ae0 82bc 1e50 7d3d 9077 443d
00000080: 6149 05be e0c9 bdbd d458 623d bda9 9ebc
00000090: 27f5 9bbd 66cf ec3d 7bee 9b3d bbbb a23d
000000a0: 218f 1abe 5863 d1bd dc0e ce3d 96a4 f93d
000000b0: bd5a 8cbc 9eea 56bc f8d9 e73d f1ad 43bd
000000c0: 6157 b43d 2ede 6b3d b08d 1b3d 4075 b63d
000000d0: 7bf8 843d 8d29 863d a816 e2bd 15a0 5cbd
000000e0: 1b40 453d b46e 95bd 14d3 a3bd cd0c 1fbc
000000f0: 1fe5 aa3d 60f6 4238 47ca 18be e4d2 98bd
00000100: cb4b c3bd f9eb 28bc 8e8f 903d d127 323d
00000110: d44a 75bc 4932 bf3d e4ff 0d3e 33fc cdbc
00000120: da55 a1ba e8d7 ce39 e7c3 4cbd a581 123d
00000130: b451 513d 8ecf a03d cbc6 cfbb b3f7 3c3d
00000140: 340f d2bc 0ec1 2f3e ef6d 1b3d 16b5 b1bd
00000150: ca54 013e 5119 b4bd 0132 143e d712 06bd
00000160: 11f3 1cbd 103c 2e3d 8c41 fc3d d3d1 b139
00000170: 3b36 493d ad5f b43d ba78 9cbd 6d38 91bd
00000180: ae0b ffbc e577 173e 66f3 013e b610 bdbd
00000190: 9f24 ab3d 131e 023e 30b2 be3d cd08 bfbc
000001a0: b47c 253c 1a05 733d ad6b dbbc dd4f 5fbd
000001b0: b8c1 a6bd 6515 bfbd c541 03bb a64e 0fbd
000001c0: bf97 b13d f6cc cd3d f21d 033e c349 bcbd
000001d0: 3e22 dd3d 97b3 83bd eef2 803d 8b8c 03be
000001e0: 5c1f 053d 3ff9 95bd eb5b c1bb e83f 243c
000001f0: 8613 5e3c a32e 143d c0b0 aebd 7146 a93d
00000200: 09d1 2e3d 5a07 eebd 8fa6 eb3b 9bfb bc3c
00000210: 62ab 8f3d 5194 e33d 87d3 593d 92b1 95bc
00000220: 4d0f 5cbd b92a 193d 4b16 5a3c addd 4a3d
00000230: a6ab fbbc c896 ec3d 44c1 3e3d b4c1 eabd
00000240: 191d 923b cc26 873c b929 153e f66c 26be
00000250: b97f 903d b8f5 423d 753d 8a3d 115f d63d
00000260: a64e dc3d 45ae 38bd 0730 373d c861 853d
00000270: 5d1d dcbc fb1e 96bd 3dbb 4e3d 0c55 f33d
00000280: 4bb3 373d 7481 a5bc c75d edbc 883c 853c
00000290: 40d4 c2bd d32d 1c3d 80a1 02bd 55a1 e1bd
000002a0: 63f6 c43d 5d5f 83bd d09d db3d efcf 833d
000002b0: 58b8 10be 5d95 30bd af29 debd 94ad 05bd
000002c0: 9ff9 55bd 16b6 ad3d 860d 053d 3f2e d7bd
000002d0: 7ea6 433d fc90 85bc 89dd 7c3c 583a c23c
000002e0: 0178 13be cd19 5dbd 88e7 013e 3eb1 28bd
000002f0: 644c e73d e994 a6bc 2333 e7b9 5b08 96bd
00000300: 7dbf f1ba ae76 9c3d 721f 6ebb 8ac6 e43c
00000310: 1f58 0d3d fa21 b43d f426 0d3e fb7d 793c
00000320: cd89 09bd 7ea6 95bd f522 b33d f0c5 533d
00000330: afcd 0b3e a7e0 cdbd d226 4fbd 4837 25bd
00000340: d51b fb3d 4e06 a8bd be45 cebd 0354 dcbc
00000350: 156e 2c3d e2c6 b23d c1ff 2cbe 4e59 443d
00000360: b247 113e de1b b2bd 99c1 17be c20c 113e
00000370: e0ff ddbd 2cdc 143e 76a6 18be 088f 863d
00000380: c680 68bc f129 26bd 5a00 2abd 214b ec3c
00000390: e4f4 28bd 0f19 ae3c 3e33 72bd beae a03d
000003a0: 4427 0a3e ac5d 143d d953 853c 17a6 a9bd
000003b0: e976 b33c 7f82 b53c dd10 193e ccaf b53d
000003c0: 7761 debd ffcc bb3c f0fc 31bd aed8 073d
000003d0: e8b5 64bc 7a84 e23c 90b3 03be 546c 4e3d
000003e0: fcce a9bd bd16 e1bd 925c 9ebd 8910 0ebc
000003f0: 0339 a7bc 76af 4e3e 31d7 aa3d b324 b33d
0.091233656 0.1001231 -0.060073335 -0.032931972 -0.029587653 -0.10665613 0.033722483 0.08264882
-0.0023651351 -0.103581965 -0.15939987 -0.053686492 0.12403516 -0.06601461 0.05159288 -0.053523522
0.03811596 0.04215543 -0.036600925 -0.016558968 -0.098324776 0.15593778 -0.045592107 -0.0868275
0.0487983 0.020404655 -0.036135346 -0.07468073 -0.115007706 -0.01597612 0.061843984 0.047965586
-0.13016273 -0.0926702 0.055260494 -0.019368047 -0.076151185 0.115629956 0.07613846 0.07945963
-0.15093662 -0.102240264 0.10061428 0.121895954 -0.017133111 -0.0131174605 0.11320871 -0.047773305
0.08805729 0.057584934 0.03797692 0.089090824 0.064927064 0.06550894 -0.110394776 -0.053863604
0.04815684 -0.072965056 -0.07999244 -0.009707642 0.08344483 4.648266e-05 -0.14920913 -0.07462099
-0.09535941 -0.0103101665 0.07058631 0.043495003 -0.014971454 0.09335763 0.13867146 -0.025144672
-0.0012308911 0.00039452245 -0.049991515 0.03576817 0.05110331 0.07852088 -0.0063408366 0.046134662
-0.025642015 0.17163488 0.037946638 -0.086771175 0.1263 -0.08793891 0.144722 -0.03273281
-0.038317744 0.04253775 0.123171896 0.00033916402 0.049123984 0.08807311 -0.07640214 -0.070908405
-0.031133499 0.1479183 0.12690505 -0.09231703 0.08356594 0.12706785 0.0931133 -0.023319626
0.010100532 0.059331037 -0.026784742 -0.054519523 -0.08142418 -0.093302526 -0.0020028215 -0.034987114
0.086715214 0.10048859 0.12804392 -0.091937564 0.10797547 -0.064307384 0.06296335 -0.12846582
0.03250061 -0.073229305 -0.00590085 0.010025002 0.013554459 0.03617729 -0.08529806 0.08265389
0.04267982 -0.11622496 0.007191486 0.023069194 0.070151106 0.111122735 0.053180244 -0.018273149
-0.05372553 0.03739426 0.013310979 0.049527813 -0.030721497 0.11552197 0.04657103 -0.11462727
0.004459035 0.016497992 0.14566697 -0.16252503 0.07055611 0.047597617 0.06750003 0.10467351
0.107571885 -0.04508807 0.044723537 0.06512791 -0.02686947 -0.07330128 0.050471533 0.11881456
0.04484872 -0.02020333 -0.02897538 0.016264215 -0.0951314 0.03812964 -0.0318923 -0.110171
0.09617307 -0.064146735 0.1072346 0.064361446 -0.14132822 -0.043111194 -0.10847794 -0.03263624
-0.05224001 0.08481996 0.0324836 -0.105068676 0.0477662 -0.016304485 0.0154336775 0.023709461
-0.14401247 -0.053979684 0.12685978 -0.041184656 0.11293867 -0.020334678 -0.00044097853 -0.073258124
-0.0018443909 0.07639824 -0.003633466 0.027926702 0.034507867 0.08795543 0.1378439 0.01522779
-0.033578683 -0.073071465 0.08746902 0.05170244 0.13652681 -0.10052615 -0.05057413 -0.040335923
0.12261168 -0.082043275 -0.10071896 -0.026895529 0.04209717 0.0872934 -0.16894437 0.04793673
0.14187506 -0.086967215 -0.14819945 0.14165023 -0.1083982 0.14537114 -0.1490725 0.0657025
-0.014190858 -0.040567342 -0.04150424 0.028844418 -0.04124917 0.021252183 -0.0591309 0.078458294
0.13491541 0.036222145 0.016275333 -0.08283632 0.021907287 0.022156952 0.14947839 0.08871421
-0.10858434 0.022924898 -0.04345411 0.033165626 -0.013959385 0.02765106 -0.12861466 0.05039628
-0.08291432 -0.10990665 -0.077325 -0.0086709345 -0.020412927 0.2018412 0.08341826 0.08747234

net.2.bias f4 [4]
00000000: 0299 06bc d3a7 bb3d 3720 ae3c d232 6dbc
-0.008215191 0.09162869 0.021255596 -0.014477449
