chkpt3000.pt (torch, 4831 bytes, 4 tensors)

net.0.weight f4 [64, 8]
0	0xbd053b79	-0.03252742
1	0xbd31d30d	-0.043414164
2	0x3e69d29e	0.2283425
3	0x3ea2cb77	0.31795856
4	0x3d31305b	0.043259006
5	0x3d152290	0.036409914
6	0xbd55f210	-0.052232802
7	0xbdb13000	-0.086517334
8	0xbe3a1a5d	-0.1817412
9	0x3ebd32c0	0.36952782
10	0xbe958f5c	-0.29210937
11	0x3e2d02d5	0.16895612
12	0x3dde5307	0.1085568
13	0xbe50d171	-0.20392396
14	0x3e3f7b94	0.18699485
15	0xbe70c0ed	-0.23511095
16	0x3e0c41ce	0.13696977
17	0x3e310c1c	0.17289776
18	0x3eabb6f5	0.33538023
19	0xbe684910	-0.22684121
20	0xbebfb05b	-0.37439236
21	0xbeea7966	-0.45795745
22	0x3d4fceb4	0.050734237
23	0xbe8d8f30	-0.27648306
24	0x3cb985b2	0.022646759
25	0xbde5d52c	-0.112223
26	0xbd9459fa	-0.07243724
27	0x3e464fd1	0.19366385
28	0x3d6a3bcf	0.057185944
29	0xbd9a3a6b	-0.075306736
30	0xbc402870	-0.011728391
31	0xbeac46f3	-0.3364788
32	0xbe0dc1b7	-0.13843428
33	0x3d042085	0.032257576
34	0xbd277038	-0.040878505
35	0xbeaf1686	-0.34196872
36	0xbd3d9aae	-0.046290092
37	0x3d1376dd	0.03600203
38	0x3e2ce00a	0.16882339
39	0xbddaedc9	-0.10689885
40	0xbd2d1c5e	-0.04226338
41	0x3d88b196	0.06674497
42	0xbbe78e41	-0.0070665185
43	0x3dcce93f	0.10005426
44	0x3d189b92	0.03725774
45	0xbe00ba1d	-0.12570997
46	0xbddaf09b	-0.10690423
47	0xbea67008	-0.32507348
48	0xbea59edf	-0.32347772
49	0xbe35b235	-0.17743762
50	0xbeb197e1	-0.34686187
51	0x3e7b08e6	0.24515113
52	0x3ea2bda6	0.31785315
53	0x3e77070d	0.24123783
54	0xbe644158	-0.22290552
55	0x3d0ff1da	0.035142757
56	0xbc2fce0e	-0.01073028
57	0xbe59f994	-0.21286613
58	0x3ca25b86	0.019819032
59	0x3e1c6de7	0.152763
60	0xbea74104	-0.3266679
61	0x3d9e1cea	0.07720359
62	0x3d49da5a	0.049280502
63	0x3e55674a	0.20840183
64	0x3cc0cf2b	0.023536285
65	0xbe4049ce	-0.18778154
66	0xbe5d42a5	-0.21607454
67	0x3e1e2255	0.15442784
68	0x3d93aa3d	0.07210205
69	0x3dfbdaa8	0.12297565
70	0xbe3ab1c8	-0.1823188
71	0x3e74e6bf	0.23916148
72	0x3e9ee1c2	0.31031615
73	0xbd0575dc	-0.032583103
74	0x3eedeffa	0.4647215
75	0xbe196f0b	-0.14983766
76	0xbe4194a2	-0.18904355
77	0xbdfdf6c9	-0.12400586
78	0x3db35dfc	0.087581605
79	0x3ec35f52	0.3815866
80	0x3eacf6bb	0.3378199
81	0xbe3fbe2b	-0.18724887
82	0x3d0ec8ea	0.034859575
83	0xbe7ab009	-0.24481215
84	0x3f02aef6	0.5104822
85	0xbe44c976	-0.19217476
86	0x3d93dafd	0.07219503
87	0xbd263b3f	-0.040583845
88	0x3d6d2fe4	0.057907
89	0xbd3df3da	-0.046375133
90	0xbe287610	-0.16451287
91	0x3e715030	0.23565745
92	0x3ea66e97	0.32506248
93	0xbd9f0c50	-0.0776602
94	0x3e88142d	0.26577893
95	0x3e33bc1b	0.17552225
96	0xbea6bbcb	-0.3256515
97	0x3ec3bd33	0.38230285
98	0xbe22c872	-0.15896776
99	0x3e23969f	0.15975426
100	0xbe13f6f7	-0.14449678
101	0x3edfe718	0.43730998
102	0x3d3c6421	0.045993928
103	0xbe321e44	-0.17394358
104	0xbe499ce0	-0.1968875
105	0xbea9687b	-0.33087525
106	0xbd911dd5	-0.07085768
107	0x3e690d99	0.22759093
108	0x3e82e342	0.2556401
109	0x3d1bcb9d	0.038035978
110	0x3e96b254	0.2943293
111	0xbecb7a66	-0.3974182
112	0xbe1e4b10	-0.15458322
113	0x3cbab169	0.022789674
114	0xbd54045d	-0.051761974
115	0x3e8a1d19	0.26975325
116	0xbd5f3059	-0.054489467
117	0x3d70530f	0.05867296
118	0xbe478fde	-0.19488475
119	0xbdc8631f	-0.09784531
120	0x3d215b56	0.039393745
121	0x3e96aab9	0.29427126
122	0x3eaab667	0.33342287
123	0xbe4f110a	-0.20221344
124	0x3b900beb	0.004395952
125	0xbf002854	-0.50061536
126	0x3eaea176	0.3410756
127	0xbebf52a9	-0.37367752
128	0x3c7e9f1e	0.015540866
129	0x3cc65524	0.02421052
130	0xbee42227	-0.44557306
131	0xbe98836e	-0.29787773
132	0x3ef6eb0f	0.4822621
133	0x3f0674e8	0.52522135
134	0x3e53c857	0.20681892
135	0x3d8df133	0.06930771
136	0x3e3b7c3a	0.18309107
137	0x3e5896a0	0.21151209
138	0xbde2cd90	-0.11074364
139	0x3e1d1f14	0.15343887
140	0xbf08d775	-0.5345376
141	0xbf0b6b99	-0.54461056
142	0xbd760e09	-0.06007198
143	0xbe13a22a	-0.1441733
144	0x3d42153a	0.047383524
145	0xbd47014f	-0.048585232
146	0xbd88885c	-0.066666335
147	0xbeb5cf05	-0.35509506
148	0xbe597189	-0.21234716
149	0xbeea45c1	-0.45756343
150	0x3eb0a858	0.34503436
151	0xbe0bbce6	-0.13646278
152	0xbeb792f9	-0.3585432
153	0x3e5a3aa3	0.2131143
154	0xbe5c6eeb	-0.21526687
155	0x3ede7f76	0.4345662
156	0xbdd12d47	-0.10213714
157	0x3ea8097f	0.32819745
158	0xbe292ae2	-0.16520265
159	0xbe48a788	-0.19595158
160	0xbe8e9196	-0.27845448
161	0xbd9a0001	-0.07519532
162	0xbdc6422f	-0.09680592
163	0xbd02b7be	-0.03191351
164	0xbe6431d0	-0.22284627
165	0xbe2e25ac	-0.17006558
166	0xbe860e4b	-0.2618278
167	0x3e0642ee	0.13111469
168	0x3e1cda12	0.15317562
169	0x3e8fb469	0.2806733
170	0x3e4439b5	0.19162638
171	0x3eb2f6bb	0.34953865
172	0x3e32a8e2	0.17447236
173	0xbd92c2a2	-0.071660295
174	0xbddc8d6c	-0.107691616
175	0xbe98324d	-0.29725876
176	0xbdab120b	-0.08353051
177	0x3e21d037	0.15802084
178	0x3e301a7f	0.17197607
179	0xbe945a87	-0.28975317
180	0xbf082dfe	-0.5319518
181	0xbefd9a9f	-0.4953203
182	0xbe194f45	-0.14971645
183	0x3e56f436	0.20991597
184	0x3eaad2e9	0.33364037
185	0x3e8f2ab1	0.27962258
186	0x3e2686d9	0.16262378
187	0xbec80996	-0.39069813
188	0x3e0d24cf	0.13783573
189	0x3eddac96	0.43295735
190	0xbe0bfbf6	-0.13670334
191	0xbcd56bf1	-0.026052447
192	0x3e1b75be	0.15181634
193	0x3e94bb06	0.29048938
194	0xbee7cde1	-0.4527426
195	0xbe8aff17	-0.27147743
196	0x3e3d016f	0.18457578
197	0x3de35800	0.11100769
198	0x3eb34f0b	0.35021242
199	0xbd46debf	-0.04855227
200	0x3deb4b30	0.1148895
201	0xbdc05be8	-0.0939253
202	0xbe439198	-0.19098508
203	0xbdfdeb51	-0.12398399
204	0xbd9f138e	-0.07767402
205	0x3ea036d4	0.3129183
206	0xbe542311	-0.20716502
207	0xbd0d22a7	-0.034456875
208	0x3cba5b10	0.0227485
209	0x3e46a971	0.19400574
210	0x3e4cc15f	0.1999564
211	0x3e0bd71d	0.13656278
212	0xbf1a9c75	-0.60394984
213	0xbeeaa076	-0.45825547
214	0x3d27651d	0.040867914
215	0xbd659449	-0.05604962
216	0x3e288dff	0.16460417
217	0xbec7ee6b	-0.39049086
218	0x3c8caefd	0.017173285
219	0x3a08c7ac	0.0005217742
220	0x3df2f64e	0.11863385
221	0xbe738847	-0.23782454
222	0x3ec1a970	0.37824583
223	0x3e78e09c	0.24304432
224	0xbe815d9c	-0.2526673
225	0xbe7a276e	-0.24429104
226	0xbe49e032	-0.1971443
227	0xbd0a8fa9	-0.03382841
228	0xbd7552f5	-0.059893567
229	0x3e5d783d	0.21627899
230	0x3e7464dc	0.238666
231	0xbe3f887c	-0.18704408
232	0xbe997f75	-0.29980054
233	0xbe1c4111	-0.15259196
234	0xbcbd0bf9	-0.023076998
235	0xbe4bf9ad	-0.19919463
236	0x3e825a0f	0.25459334
237	0x3e7679bc	0.24069875
238	0x3e3144d9	0.1731142
239	0x3d0f97ff	0.035057064
240	0x3d0846d5	0.033270676
241	0xbdc774e2	-0.097390905
242	0x3e967310	0.2938466
243	0xbee50767	-0.4473221
244	0xbeabdfb5	-0.33569112
245	0x3e19598a	0.14975563
246	0xbcdf957a	-0.027292956
247	0x3dc7f3a9	0.09763271
248	0xbe8f5ab4	-0.27998888
249	0xbdb52465	-0.08844832
250	0x3e13ed7e	0.14446065
251	0x3ac7c9b8	0.0015242612
252	0xbe7dfa9a	-0.24802628
253	0x3ddf60fc	0.1090717
254	0xbebdd13b	-0.37073693
255	0x3c2c80e0	0.010528773

net.0.bias f4 [64]
0	0xbe8c9542	-0.27457625
1	0x3dbd6498	0.09247702
2	0xbdd93ad1	-0.106069215
3	0xbd74dbe5	-0.05978002
4	0xbbb1dd4f	-0.0054279934
5	0xbe805b88	-0.25069833
6	0x3e97905f	0.29602334
7	0xbe353ba9	-0.1769854
8	0xbe2b62d8	-0.16736925
9	0x3dcf6e3b	0.10128447
10	0x3ea83236	0.32850808
11	0xbe6b1e8b	-0.2296087
12	0xbe8f0b9d	-0.27938548
13	0xbe6845fd	-0.22682948
14	0xbe8c5a06	-0.27412432
15	0xbde6e8cf	-0.112748735
16	0x3e89a154	0.26880896
17	0x3d856020	0.06512475
18	0x3ea8f3bb	0.32998452
19	0x3ea2ab54	0.31771338
20	0x3e915134	0.28382266
21	0xbde31ca2	-0.11089446
22	0xbccca454	-0.024980702
23	0x3e945e12	0.2897802
24	0x3de8d9f8	0.11369699
25	0xbeadd108	-0.3394854
26	0x3e8a7670	0.27043486
27	0xbe30895e	-0.17239901
28	0xbe5ce031	-0.21569897
29	0x3e3c6282	0.18396953
30	0x3e22ce74	0.15899068
31	0xbde888d1	-0.11354221
32	0x3e8cb717	0.27483436
33	0x3df000e0	0.11718917
34	0xbe3e0b52	-0.18559006
35	0xbe8700bd	-0.2636775
36	0xbd22e2b2	-0.039766975
37	0x3e327e4e	0.17430994
38	0x3ea3d84f	0.32000968
39	0xbe9bde40	-0.30443
40	0xbdf441bc	-0.119266
41	0x3d0431f9	0.03227422
42	0xbd202bc7	-0.03910425
43	0xbeb105ea	-0.34574825
44	0x3e4cdd87	0.20006381
45	0x3dd10a9b	0.10207101
46	0x3de4681e	0.11152671
47	0xbe14210a	-0.14465728
48	0x3db278f7	0.087144785
49	0xbe3b54af	-0.18294023
50	0x3ca58600	0.020205498
51	0x3c899049	0.016792433
52	0xbd266c12	-0.040630408
53	0xbe97e8f5	-0.2966992
54	0xbe21220a	-0.15735641
55	0x3e4f8bf6	0.20268235
56	0xbdbf6ca4	-0.093468934
57	0x3d00ceaa	0.03144709
58	0x3e905b37	0.2819459
59	0xbd7181b4	-0.058961585
60	0x3d6a38dc	0.05718313
61	0x3e97c393	0.296414
62	0x3eaa2d68	0.33237767
63	0xbe743c77	-0.2385119

net.2.weight f4 [4, 64]
0	0x3dbad8b6	0.091233656
1	0x3e07436e	0.13209316
2	0xbd879257	-0.06619709
3	0xbcc46d8b	-0.023978015
4	0xbd6a2828	-0.057167202
5	0xbdd9238f	-0.106024854
6	0x3d61e6ad	0.05515163
7	0x3d9b3a0c	0.07579431
8	0x3af0a0e4	0.0018358496
9	0xbe149d45	-0.14513119
10	0xbe3264b9	-0.17421235
11	0xbd4d180c	-0.05007176
12	0x3e43ec41	0.19133092
13	0xbd45d19f	-0.048295613
14	0x3d5389ae	0.051644973
15	0xbd4fe77e	-0.050757878
16	0x3d4b0f12	0.04957492
17	0x3d7d3621	0.0618192
18	0xbd632280	-0.055452824
19	0x3cd421a9	0.025894957
20	0xbdaf51df	-0.085605375
21	0x3e43c78a	0.19119087
22	0xbd72aacf	-0.059244927
23	0xbd9b7d10	-0.07592213
24	0x3d8c322b	0.06845506
25	0x3ce67294	0.028130807
26	0xbccfe067	-0.025375558
27	0xbdd6bf8c	-0.104857534
28	0xbdc76aaf	-0.09737145
29	0xbcd63857	-0.026149912
30	0x3cbd4df6	0.023108464
31	0x3d2f53dd	0.042804588
32	0xbe195741	-0.14974691
33	0xbde33ef1	-0.110959895
34	0x3dab375e	0.0836017
35	0x3cf5557e	0.029947992
36	0xbd943d46	-0.072382495
37	0x3e1122b6	0.14173397
38	0x3d82f432	0.06394233
39	0x3d9e0d68	0.07717401
40	0xbe095ea9	-0.13415016
41	0xbdc7c430	-0.09754217
42	0x3dda9a08	0.106739104
43	0x3dfc1e06	0.12310414
44	0x3c9e1b59	0.01930015
45	0xbcda4b61	-0.026647272
46	0x3e1762a1	0.14783718
47	0xbd042a89	-0.032267127
48	0x3dcf94bb	0.1013579
49	0x3d080026	0.033203267
50	0x3c716f6e	0.01473604
51	0x3db24b4f	0.0870577
52	0x3d0a85de	0.033819072
53	0x3da83001	0.08212281
54	0xbdf7ebc1	-0.12105513
55	0xbd425979	-0.04744861
56	0x3dac38b9	0.084092565
57	0xbd8a0eed	-0.06741128
58	0xbdf07f51	-0.11743034
59	0xbc834f32	-0.016028974
60	0x3da853a1	0.08219076
61	0x3d41c271	0.047304574
62	0xbe114888	-0.14187825
63	0xbd8f5a27	-0.06999617
64	0xbdc34bcb	-0.09535941
65	0xbcaabfae	-0.020843353
66	0x3e035447	0.12825118
67	0x3ce615de	0.028086599
68	0xbd6bc317	-0.0575591
69	0x3db5f55d	0.0888469
70	0x3dcb8c73	0.09938898
71	0xbbeffcf4	-0.0073238555
72	0xbc4acc9d	-0.012377885
73	0x3d38f8db	0.045159202
74	0xbe43d6cc	-0.19124907
75	0x3c8b0098	0.016968057
76	0x3cf59907	0.029980196
77	0x3d77eb83	0.060527336
78	0xbbce11b3	-0.006288731
79	0x3d496430	0.049167812
80	0xbe2d6215	-0.16931947
81	0x3ea66e0f	0.32505843
82	0x3d02ddc1	0.031949762
83	0xbdc76b6d	-0.09737287
84	0x3e063111	0.13104655
85	0xbd838688	-0.06422144
86	0x3e6a3cfd	0.22874828
87	0xbdc1e59b	-0.09467622
88	0xbde8931a	-0.113561824
89	0x3d114a9b	0.03547154
90	0x3e3b6085	0.18298538
91	0xbce988d7	-0.028507633
92	0x3d067dbe	0.03283476
93	0xbcb68ab4	-0.022282936
94	0xbd9aa1c9	-0.07550389
95	0xbd4fdaf3	-0.050745916
96	0xbe23bccb	-0.15989988
97	0x3dfbe33d	0.12299202
98	0x3e50023b	0.20313351
99	0xbe255887	-0.16147052
100	0x3d475155	0.04866155
101	0x3e1f61e1	0.15564682
102	0x3d63cbfb	0.055614453
103	0xbc58bf4e	-0.013229204
104	0xbe3c6d90	-0.1840117
105	0xbb073b0c	-0.002063456
106	0xbd11c170	-0.035584867
107	0xbd2c5340	-0.04207158
108	0xbda68aba	-0.08131929
109	0xbe5d6efe	-0.21624371
110	0xbd271401	-0.04079056
111	0xbc9cd168	-0.019142821
112	0x3db82500	0.08991432
113	0x3dcacff0	0.09902942
114	0x3e48ea02	0.19620517
115	0xbde00f88	-0.10940462
116	0x3e4227f3	0.18960552
117	0xbda29e23	-0.079403184
118	0x3ddc443f	0.107552044
119	0xbe4c3a7e	-0.19944188
120	0x3d4ac639	0.049505446
121	0xbdb36545	-0.0875955
122	0xbd2a91b2	-0.041642852
123	0xbc2cd4ee	-0.010548813
124	0xbba6536f	-0.005075864
125	0xbd909903	-0.07060435
126	0xbe745726	-0.2386137
127	0x3d6bf92a	0.05761067
128	0x3d2ed109	0.04267982
129	0xbde9c7cd	-0.11415062
130	0x3d1f541a	0.038898565
131	0x3d5c8f0e	0.053847365
132	0x3e35e249	0.17762102
133	0x3deb19aa	0.114795044
134	0x3d17b124	0.03703417
135	0xbcce5334	-0.025186159
136	0xbd6a7751	-0.057242695
137	0x3e08fe4f	0.13378261
138	0x3e1eb0d6	0.15497145
139	0x3da30c04	0.07961276
140	0xbdb941bf	-0.09045743
141	0x3e0c0540	0.13673878
142	0x3d3e8aa4	0.046518937
143	0xbd8625fe	-0.06550215
144	0x3d971984	0.073779136
145	0xbd6b1af4	-0.05739875
146	0x3e7034ac	0.23457593
147	0xbe3bc07e	-0.18335149
148	0x3e00a389	0.12562384
149	0x3c2e06e5	0.010621761
150	0x3de25b7a	0.11052604
151	0x3e313e19	0.17308845
152	0x3e299774	0.16561681
153	0xbd95df9d	-0.073180415
154	0x3d402174	0.046906903
155	0x3e07087e	0.13186833
156	0xbd3c5287	-0.04597714
157	0x3bdeacd4	0.006795505
158	0x3e159991	0.14609362
159	0x3dea8261	0.11450649
160	0x3e2ab3aa	0.16670099
161	0x3ccc9bbb	0.024976602
162	0xbda06d39	-0.078333326
163	0xbb0203e2	-0.001983874
164	0xbdad34e2	-0.08457352
165	0x3ccfd517	0.025370164
166	0x3d4d8ab2	0.0501811
167	0xbdc882b2	-0.09790553
168	0x3e3baa2b	0.18326633
169	0xbd0ec102	-0.034852035
170	0x3da0ea0f	0.07857143
171	0x3d47dccf	0.048794564
172	0xbe17697c	-0.14786333
173	0x3d43e2c6	0.04782369
174	0xbdb755d7	-0.089519195
175	0xbd8e4dcb	-0.069484316
176	0xbc815126	-0.015785765
177	0x3ddb02dc	0.10693905
178	0x3dd1f1b5	0.1025118
179	0xbd7ae6f4	-0.06125541
180	0x3dfefa3f	0.124500744
181	0xba48d55f	-0.00076611893
182	0x3d8dbaf6	0.069204256
183	0x3de02f52	0.10946526
184	0xbe281937	-0.16415869
185	0xbd3a1348	-0.045428544
186	0x3e7e146a	0.24812475
187	0xbd0906e8	-0.033453852
188	0x3e04b4bb	0.12959568
189	0x3bc607b4	0.0060433988
190	0x3dc19999	0.094531246
191	0xbd92940c	-0.07157144
192	0xbaf1bf7d	-0.0018443909
193	0x3d7dce2b	0.061964195
194	0xbdb5470a	-0.0885144
195	0x3cb797ef	0.022411315
196	0xbc754edc	-0.014972415
197	0x3db449fb	0.08803173
198	0x3e2d5541	0.16927053
199	0x3be8fd69	0.007110287
200	0xbcb155e5	-0.021647403
201	0xbe3cc649	-0.18435015
202	0x3dbec1c4	0.093143016
203	0x3d2f7834	0.042839244
204	0x3e1a6846	0.1507884
205	0xbdee58a1	-0.11637998
206	0xbd4ef032	-0.050522037
207	0xbdacf85b	-0.084458075
208	0x3e31c98b	0.17362039
209	0xbe6d3a75	-0.23166831
210	0xbe228232	-0.15869978
211	0xbd07cac6	-0.033152364
212	0xbc81887e	-0.015812155
213	0x3d76990c	0.06020455
214	0xbe956c3f	-0.29184148
215	0x3d38526c	0.04500048
216	0x3e1d9c8a	0.15391746
217	0xbd79043b	-0.06079505
218	0xbe66e216	-0.22547182
219	0x3dff872f	0.12476956
220	0xbdb3e7c0	-0.08784437
221	0x3e332059	0.17492808
222	0xbe598cf5	-0.21245177
223	0x3d5deb5c	0.054179534
224	0xbba4247a	-0.005009231
225	0xbd2a6a07	-0.04160502
226	0xbde88765	-0.113539495
227	0x3d99142a	0.07474549
228	0xbcc385e1	-0.02386755
229	0xbcaa261c	-0.020770125
230	0xbdac798b	-0.0842162
231	0x3d71299d	0.058877576
232	0x3e50a98e	0.2037718
233	0x3d6f0ade	0.058359973
234	0x3d3d3018	0.046188444
235	0xbdb7964e	-0.08964215
236	0xbad9ae48	-0.0016607726
237	0x3d335e7d	0.043791283
238	0x3e1949f4	0.14969617
239	0x3daee155	0.085390724
240	0xbe19722d	-0.14984961
241	0x3d0355fb	0.03206442
242	0xbe2af966	-0.166967
243	0x3c377a8f	0.011198654
244	0xbe278143	-0.16357903
245	0x3c7034f6	0.014661064
246	0xbe5cc83a	-0.21560755
247	0x3d2bd251	0.04194862
248	0xbdec5888	-0.115403235
249	0xbddb805d	-0.10717843
250	0xbe05019a	-0.12988892
251	0x3c0563e4	0.008141492
252	0xbc77e667	-0.015130616
253	0x3e7bc753	0.24587755
254	0x3dfc5aad	0.123219825
255	0x3dd6ffca	0.10498007

net.2.bias f4 [4]
0	0x3a3a4682	0.00071058434
1	0x3d589fdd	0.052886833
2	0x3db7416e	0.089480266
3	0xbd1364e4	-0.03598489
