chkpt2000.pt (torch, 4831 bytes, 4 tensors)

net.0.weight f4 [64, 8]
-0.03252742 -0.043414164 0.2283425 0.31795856 0.043259006 0.036409914 -0.052232802 -0.086517334
-0.1528068 0.36611742 -0.27092266 0.13639605 0.091033526 -0.2419839 0.19326174 -0.21272868
0.11132995 0.1580619 0.2864762 -0.21483894 -0.28716263 -0.37831458 0.013498441 -0.23755997
0.042882364 -0.11258352 -0.0662335 0.20455055 0.05236115 -0.08017847 0.019856349 -0.3364788
-0.23844397 -0.024251992 -0.079921335 -0.25291264 -0.11213779 -0.0055187223 0.1116586 -0.16138482
-0.041607976 0.065582745 -0.0067405775 0.09934188 0.03702369 -0.12626623 -0.10666701 -0.32507348
-0.33882815 -0.22698836 -0.35840786 0.23294643 0.31247574 0.22157177 -0.20716341 0.062426213
-0.0049485555 -0.21282053 0.026101395 0.15348135 -0.32997802 0.08058361 0.043538027 0.18195732
-0.008255504 -0.17865446 -0.22296014 0.1600516 0.07697056 0.12690055 -0.17160253 0.25222373
0.21611358 -0.05254706 0.40139067 -0.06798444 -0.15603095 -0.060724773 0.03732484 0.34510598
0.2865175 -0.19002424 0.050586928 -0.18537503 0.43682387 -0.24821335 0.027410705 -0.09755899
0.10325717 -0.032130364 -0.17837168 0.22264145 0.33377826 -0.07262294 0.27849972 0.16863328
-0.312977 0.36572945 -0.1308735 0.15355925 -0.21451606 0.38619265 0.08518145 -0.19308756
-0.18081942 -0.3264659 -0.07641245 0.22413237 0.2620576 0.041439615 0.2578117 -0.37807488
-0.15458322 0.022789674 -0.051761974 0.26975325 -0.054489467 0.05867296 -0.19488475 -0.09784531
0.07185847 0.3009459 0.31165725 -0.24157584 0.07199552 -0.45023146 0.35055286 -0.33153388
0.003946457 0.016019665 -0.39104024 -0.26276812 0.37941682 0.43305084 0.20533678 0.060687132
0.14141779 0.17343254 -0.18008865 0.19889927 -0.40125388 -0.4239177 -0.056594387 -0.144601
-0.031328257 -0.040290173 -0.11381062 -0.29375115 -0.19274303 -0.40845948 0.31059638 -0.18976219
-0.3055827 0.21242607 -0.17180255 0.400372 -0.13602564 0.29903463 -0.15993367 -0.15987943
-0.2945386 -0.06843621 -0.12382319 -0.026031129 -0.18808499 -0.1327247 -0.29954356 0.10515414
0.15289767 0.2856678 0.21522254 0.36091062 0.12205644 -0.104936756 -0.11321367 -0.29725876
-0.13471848 0.13822407 0.11700289 -0.2614633 -0.43982673 -0.39285904 -0.17001705 0.20433657
0.27406365 0.28072473 0.1629182 -0.3213406 0.08946664 0.40308207 -0.19010401 -0.09172828
0.115120165 0.2883462 -0.42106214 -0.2150321 0.097916044 0.047155697 0.33531514 -0.0938337
0.112723365 -0.09339089 -0.19713247 -0.124274865 -0.075176895 0.3149799 -0.20517121 -0.02422605
0.006699893 0.19448614 0.15445153 0.1445705 -0.49558744 -0.34895018 0.04223465 -0.02748709
0.15540138 -0.36858988 -0.0028763956 0.054575205 0.119936764 -0.23255253 0.33721524 0.20650688
-0.24968207 -0.24153242 -0.20360735 -0.032582864 -0.055429127 0.2202469 0.20637515 -0.18386382
-0.2787235 -0.18005097 -0.0007831353 -0.22015771 0.23122208 0.20542032 0.17801271 0.060297497
-0.044954497 -0.15189704 0.26004747 -0.3739264 -0.35793608 0.17680393 -0.04042201 0.058823247
-0.2722534 -0.07747372 0.15808772 -0.005708916 -0.26601917 0.085765846 -0.37073693 0.011473643
00000000: 793b 05bd 0dd3 31bd 9ed2 693e 77cb a23e
00000010: 5b30 313d 9022 153d 10f2 55bd 0030 b1bd
00000020: 6379 1cbe be73 bb3e 60b6 8abe 68ab 0b3e
00000030: c96f ba3d a1ca 77be 68e6 453e 8cd5 59be
00000040: f500 e43d fbda 213e 02ad 923e bdfe 5bbe
00000050: fb06 93be 73b2 c1be 9128 5d3c ec42 73be
00000060: 6ba5 2f3d 3092 e6bd 6ea5 87bd b375 513e
00000070: a578 563d 9c34 a4bd c8a9 a23c f346 acbe
00000080: a82a 74be 1dac c6bc ccad a3bd c47d 81be
00000090: 7fa8 e5bd 66d6 b4bb 44ad e43d 1042 25be
000000a0: 206d 2abd 3f50 863d 10e0 dcbb c173 cb3d
000000b0: 27a6 173d ef4b 01be 3c74 dabd 0870 a6be
000000c0: e27a adbe a36f 68be 3c81 b7be 8289 6e3e
000000d0: d2fc 9f3e b6e3 623e a522 54be a1b2 7f3d
000000e0: 7e27 a2bb a0ed 59be 98d2 d53c 372a 1d3e
000000f0: e1f2 a8be 0509 a53d ee54 323d 0553 3a3e
00000100: 1842 07bc 32f1 36be aa4f 64be 91e4 233e
00000110: bea2 9d3d 38f2 013e 93b8 2fbe 7823 813e
00000120: e14c 5d3e 963b 57bd 1483 cd3e 6d3b 8bbd
00000130: 94c6 1fbe 8aba 78bd eee1 183d bbb1 b03e
00000140: 6cb2 923e b795 42be 3d34 4f3d f4d2 3dbe
00000150: 61a7 df3e a42b 7ebe 6a8c e03c 02cd c7bd
00000160: 7f78 d33d 219b 03bd 11a7 36be 1ffc 633e
00000170: fce4 aa3e 56bb 94bd 8497 8e3e 34ae 2c3e
00000180: 853e a0be e440 bb3e b403 06be a33e 1d3e
00000190: 19aa 5bbe 0bbb c53e 9d73 ae3d bfb8 45be
000001a0: ba28 39be 8a26 a7be 217e 9cbd f582 653e
000001b0: 6a2c 863e 96bc 293d e5ff 833e 0893 c1be
000001c0: 104b 1ebe 69b1 ba3c 5d04 54bd 191d 8a3e
000001d0: 5930 5fbd 0f53 703d de8f 47be 1f63 c8bd
000001e0: 892a 933d 9515 9a3e 8a91 9f3e a85f 77be
000001f0: 6372 933d bd84 e6be aa7b b33e cfbe a9be
00000200: 4851 813b ac3b 833c 6d36 c8be 8b89 86be
00000210: ec42 c23e d7b8 dd3e ce43 523e 1293 783d
00000220: d3cf 103e 4d98 313e 2969 38be 40ac 4b3e
00000230: 2671 cdbe be0b d9be 84cf 67bd 4912 14be
00000240: 0f52 00bd 4f07 25bd 8b15 e9bd 8d66 96be
00000250: 6e5e 45be 9a21 d1be 7d06 9f3e 0551 42be
00000260: 5675 9cbe 3886 593e 02ed 2fbe 8ffd cc3e
00000270: 4e4a 0bbe 111b 993e a7c5 23be 6fb7 23be
00000280: c3cd 96be 4928 8cbd 0397 fdbd 3c3f d5bc
00000290: 5a99 40be fce8 07be c65d 99be 0e5b d73d
000002a0: 3591 1c3e 0d43 923e 4c63 5c3e 47c9 b83e
000002b0: baf8 f93d 15e9 d6bd 92dc e7bd 4d32 98be
000002c0: a4f3 09be 9c8a 0d3e 369f ef3d 85de 85be
000002d0: f830 e1be d224 c9be f318 2ebe 9b3d 513e
000002e0: 1252 8c3e 27bb 8f3e 07d4 263e c186 a4be
000002f0: 493a b73d c660 ce3e a0aa 42be 09dc bbbd
00000300: 1fc4 eb3d 1da2 933e 7595 d7be 6031 5cbe
00000310: 3588 c83d 5526 413d 6dae ab3e e22b c0bd
00000320: 82db e63d b943 bfbd 18dd 49be d283 febd
00000330: 58f6 99bd 0c45 a13e 6718 52be b675 c6bc
00000340: c78a db3b 6027 473e 8b28 1e3e 4a0a 143e
00000350: a3bd fdbe 99a9 b2be 3efe 2c3d 9b2c e1bc
00000360: 8a21 1f3e d0b7 bcbe e981 3cbb 408a 5f3d
00000370: 68a1 f53d 4022 6ebe 7aa7 ac3e 8a76 533e
00000380: a8ac 7fbe 4654 77be 727e 50be 9c75 05bd
00000390: a709 63bd 6788 613e 0254 533e cc46 3cbe
000003a0: d9b4 8ebe 485f 38be 524b 4dba 0671 61be
000003b0: 7bc5 6c3e b459 523e f748 363e 82fa 763d
000003c0: 3522 38bd e68a 1bbe f124 853e 4873 bfbe
000003d0: 6643 b7be 170c 353e 8d91 25bd a5f0 703d
000003e0: cc64 8bbe 8baa 9ebd bfe1 213e dc11 bbbb
000003f0: aa33 88be 01a6 af3d 3bd1 bdbe f2fb 3b3c

net.0.bias f4 [64]
-0.27457625 0.10400268 -0.13012846 -0.04281828 -0.088898644 -0.2502369 0.2908124 -0.17537776
-0.16135298 0.04194364 0.30254725 -0.20489784 -0.29742563 -0.21855083 -0.27412432 -0.094327204
0.2589322 0.014757907 0.30037668 0.33132073 0.27988026 -0.10841091 -0.060340043 0.25897834
0.09565493 -0.3357899 0.26149222 -0.19737357 -0.21380888 0.18859519 0.07543767 -0.09914566
0.1889016 0.10189942 -0.2126357 -0.27986062 -0.023107708 0.18207978 0.31993988 -0.2940656
-0.17302765 0.05198413 -0.049515866 -0.33423308 0.21020314 0.010620188 0.12669483 -0.14322793
0.09360534 -0.21470816 -0.020009 0.037597317 -0.10063707 -0.2957919 -0.18733987 0.18140858
-0.09319654 0.0105777625 0.233628 -0.04163446 0.04824768 0.29859444 0.31347564 -0.22995116
00000000: 4295 8cbe 5bff d43d 6540 05be 3962 2fbd
00000010: 7e10 b6bd 0d1f 80be 5de5 943e 3a96 33be
00000020: b739 25be 18cd 2b3d 79e7 9a3e bdd0 51be
00000030: 2c48 98be cacb 5fbe 065a 8cbe 9f2e c1bd
00000040: c392 843e 26cb 713c f9ca 993e dfa2 a93e
00000050: 774c 8f3e 8a06 debd 1f27 77bd cf98 843e
00000060: bbe6 c33d a7ec abbe 4fe2 853e 4c1c 4abe
00000070: b7f0 5abe 191f 413e 117f 9a3d e10c cbbd
00000080: 6c6f 413e a5b0 d03d 2cbd 59be e449 8fbe
00000090: 604c bdbc 1f73 3a3e 29cf a33e c48f 96be
000000a0: 292e 31be 50ed 543d 26d1 4abd 9920 abbe
000000b0: 7e3f 573e 4c00 2e3c 4abc 013e 58aa 12be
000000c0: 28b4 bf3d 75dc 5bbe eae9 a3bc a5ff 193d
000000d0: cf1a cebd 0972 97be 06d6 3fbe 2cc3 393e
000000e0: d4dd bebd 5a4e 2d3c 2e3c 6f3e e588 2abd
000000f0: 5c9f 453d 5fe1 983e e17f a03e 5178 6bbe

net.2.weight f4 [4, 64]
0.091233656 0.12693569 -0.060804073 -0.031395838 -0.04871596 -0.10665613 0.050414857 0.076428145
0.01059845 -0.122624904 -0.1677331 -0.047343433 0.18747705 -0.05246672 0.051644973 -0.045601126
0.049775805 0.068234324 -0.04607039 0.022072995 -0.0875107 0.18971236 -0.053556852 -0.07110687
0.06821475 0.030066544 -0.019975225 -0.0941568 -0.09669318 -0.021039149 0.041202407 0.047789983
-0.14397524 -0.09567402 0.086571716 0.027808804 -0.072009005 0.14010112 0.07090991 0.07634569
-0.13811304 -0.10168431 0.11003869 0.12189555 0.015200549 -0.018976914 0.1412633 -0.0449945
0.10421656 0.053845078 0.022596393 0.09120068 0.04979325 0.0821565 -0.11111432 -0.04741402
0.083385654 -0.060658716 -0.100614734 -0.010812736 0.08480266 0.04362186 -0.1403601 -0.06600617
-0.09535941 -0.019855332 0.09240866 0.0417384 -0.01726981 0.09335763 0.10855573 -0.016058734
-0.01881018 0.022541795 -0.1167943 0.010831469 0.024954716 0.06148575 -0.006288731 0.043082185
-0.10007589 0.2255095 0.035061575 -0.103074506 0.11530889 -0.085711814 0.18015184 -0.06843344
-0.07514838 0.034050617 0.14196345 0.009831661 0.03106373 0.027029011 -0.07721841 -0.068256065
-0.08498818 0.12029864 0.1468933 -0.13179617 0.05232732 0.12987496 0.07200347 -0.01853605
-0.07715245 0.019743465 -0.035836324 -0.054519445 -0.088775165 -0.13779837 -0.025151337 -0.02584728
0.08135798 0.10029201 0.15958786 -0.11229989 0.13757008 -0.07961403 0.078144014 -0.16184902
0.027394572 -0.09153066 -0.023365313 -0.010473015 -0.0064233206 -0.027711714 -0.16618338 0.056377582
0.04267982 -0.10025905 0.02198881 0.03859323 0.08061342 0.111122735 0.036809582 -0.019003853
-0.062524445 0.06522071 0.06663646 0.071890704 -0.040099513 0.13872434 0.046518937 -0.086284526
0.032317474 -0.018310186 0.17581399 -0.15278065 0.09838312 0.04430896 0.08338217 0.1372673
0.13456117 -0.064113386 0.04948937 0.081710115 -0.03745418 -0.040929314 0.08342545 0.12239619
0.075856276 -0.0043395837 -0.043262903 0.019703103 -0.09422082 0.04808952 0.0022598319 -0.10592534
0.124229245 -0.0601074 0.07951209 0.064361885 -0.12552841 -0.035130464 -0.087638274 -0.047349367
-0.025545234 0.085304804 0.059226193 -0.075210825 0.07138314 0.002195228 0.03501983 0.061301146
-0.13315903 -0.053470716 0.16473417 -0.043271556 0.12104389 -0.0012874301 0.035364106 -0.08314134
-0.0018443909 0.05439468 -0.038743597 0.015256427 0.043315876 0.08795543 0.16588886 0.011233414
-0.01842704 -0.105700105 0.10868303 0.052488975 0.11913325 -0.11501541 -0.050522037 -0.065417685
0.15318067 -0.15200111 -0.11518708 -0.04728592 0.024542237 0.05884478 -0.21480693 0.045553
0.14325199 -0.06904949 -0.1861747 0.13080914 -0.093640216 0.17360705 -0.16090405 0.05970246
0.016671622 -0.025588272 -0.08064603 0.028960358 -0.018500885 -0.009028527 -0.06290677 0.07256998
0.17392704 0.06682631 0.04256873 -0.08283625 -0.0073097073 0.05991854 0.137403 0.086920746
-0.13542573 0.02843458 -0.08942001 0.024829382 -0.058623437 0.012896638 -0.1602377 0.04797375
-0.11456977 -0.10204978 -0.07656166 0.012885825 -0.008765828 0.2153662 0.115523905 0.112788565
00000000: b6d8 ba3d 6efb 013e b10d 79bd ec98 00bd
00000010: 638a 47bd 876e dabd cf7f 4e3d 5c86 9c3d
00000020: 1fa5 2d3c c422 fbbd 3ac2 2bbe 30eb 41bd
00000030: fcf9 3f3e 58e7 56bd ae89 533d 3fc8 3abd
00000040: b7e1 4b3d 70be 8b3d 4eb4 3cbd 6dd2 b43c
00000050: cf38 b3bd f543 423e 6e5e 5bbd 7ba0 91bd
00000060: 2db4 8b3d 1d4e f63c 15a3 a3bc 48d5 c0bd
00000070: 1307 c6bd 4b5a acbc dbc3 283d 6ebf 433d
00000080: 3f6e 13be bef0 c3bd 834c b13d 4acf e33c
00000090: 7579 93bd ab76 0f3e 3739 913d 215b 9c3d
000000a0: 816d 0dbe dd3f d0bd f75b e13d 60a4 f93d
000000b0: b90b 793c 7975 9bbc 54a7 103e 274c 38bd
000000c0: 7e6f d53d a88c 5c3d 121c b93c 6cc7 ba3d
000000d0: 02f4 4b3d ab41 a83d e88f e3bd 3435 42bd
000000e0: 19c6 aa3d 4675 78bd 190f cebd e727 31bc
000000f0: 04ad ad3d d6ac 323d 8fba 0fbe 3e2e 87bd
00000100: cb4b c3bd a6a7 a2bc c040 bd3d e2f5 2a3d
00000110: 6b79 8dbc 4932 bf3d 7752 de3d 9b8d 83bc
00000120: ce17 9abc 92a9 b83c da31 efbd 7976 313c
00000130: d56d cc3c 7bd8 7b3d b311 cebb f276 303d
00000140: 97f4 ccbd f6eb 663e ba9c 0f3d ba18 d3bd
00000150: 1127 ec3d ad89 afbd b979 383e d526 8cbd
00000160: 65e7 99bd a978 0b3d de5e 113e fa14 213c
00000170: 5d79 fe3c f26b dd3c b024 9ebd d6c9 8bbd
00000180: 480e aebd 225f f63d 326b 163e 93f5 06be
00000190: 2c55 563d f1fd 043e 8e76 933d ead8 97bc
000001a0: 1b02 9ebd 0cbd a13c 1cc9 12bd c84f 5fbd
000001b0: c1cf b5bd 041b 0dbe 2d0a cebc adbd d3bc
000001c0: 039f a63d e665 cd3d 006b 233e 7cfd e5bd
000001d0: 2cdf 0c3e ae0c a3bd f809 a03d c0bb 25be
000001e0: 956a e03c 6d74 bbbd 9d68 bfbc 0297 2bbc
000001f0: b87a d2bb ad03 e3bc fa2b 2abe 2eec 663d
00000200: 09d1 2e3d 9e54 cdbd e021 b43c ef13 1e3d
00000210: a618 a53d 5194 e33d a5c5 163d f8ad 9bbc
00000220: d10c 80bd 7092 853d b278 883d 6f3b 933d
00000230: 633f 24bd c10d 0e3e a48a 3e3d f1b5 b0bd
00000240: 545f 043d 3eff 95bc 9508 343e 8872 1cbe
00000250: 177d c93d 507d 353d 45c4 aa3d cd8f 0c3e
00000260: 67ca 093e e14d 83bd 5eb5 4a3d a257 a73d
00000270: 8e69 19bd 7fa5 27bd f6da aa3d dbaa fa3d
00000280: 895a 9b3d 1133 8ebb 7134 31bd 6768 a13c
00000290: d8f6 c0bd 84f9 443d b019 143b 62ef d8bd
000002a0: e76b fe3d 2d33 76bd 3cd7 a23d 2ad0 833d
000002b0: 858a 00be f6e4 0fbd b27b b3bd 69f1 41bd
000002c0: 3d44 d1bc 49b4 ae3d 2a97 723d 2208 9abd
000002d0: 5331 923d d0dd 0f3b f470 0f3d e916 7b3d
000002e0: d75a 08be 1c04 5bbd 13b0 283e 843d 31bd
000002f0: dce5 f73d fcbe a8ba f4d9 103d 0246 aabd
00000300: 7dbf f1ba f5cc 5e3d 9bb1 1ebd 18f6 793c
00000310: fd6b 313d fa21 b43d c5de 293e 5a0c 383c
00000320: 4ef4 96bc 4c79 d8bd 3595 de3d aefe 563d
00000330: 22fc f33d 338d ebbd 32f0 4ebd b5f9 85bd
00000340: 65db 1c3e 2ea6 1bbe 34e7 ebbd e1ae 41bd
00000350: cd0c c93c 3907 713d 59f6 5bbe c895 3a3d
00000360: a6b0 123e d269 8dbd 95a4 3ebe d5f2 053e
00000370: 71c6 bfbd 0cc6 313e 08c4 24be 918a 743d
00000380: ed92 883c 7f9e d1bc bf29 a5bd 463e ed3c
00000390: 2b8f 97bc 63ec 13bc 44d5 80bd 929f 943d
000003a0: ee19 323e 3bdc 883d 8c5c 2e3d 0da6 a9bd
000003b0: 4586 efbb 256d 753d 5fb3 0c3e 8103 b23d
000003c0: 0bad 0abe a3ef e83c d721 b7bd fd66 cb3c
000003d0: 211f 70bd 6c4c 533c 5a15 24be 1f80 443d
000003e0: 8ea3 eabd 7aff d0bd 5ccc 9cbd 111f 533c
000003f0: 8c9e 0fbc f588 5c3e cc97 ec3d b1fd e63d

net.2.bias f4 [4]
0.005133711 0.06620279 0.0555559 -0.024905633
00000000: b038 a83b 5495 873d 958e 633d e606 ccbc
