final_weights.pt (torch, 4831 bytes, 4 tensors)

net.0.weight f4 [64, 8]
00000000: 6b5d 723d c125 32be d04a ae3e 7efc d63e
00000010: 31e0 c73c 7eaf 4c3e 80b4 d2bc b45c 51be
00000020: 5282 acbe d3e3 ce3e a38d a4be 4ff3 8a3e
00000030: 21ff ef3d 6688 23be 3414 233d 9c70 8cbe
00000040: 071e f13d c0d4 293e 8c60 bf3e 8ccd abbe
00000050: be1e 11bf 455b 25bf 7574 2c3d 7af8 d9be
00000060: e62b 233e 5c92 33be 5840 c2bd 8557 b73d
00000070: f6a9 0a3e 7bd5 433b 4fc9 1f3e e4b7 babe
00000080: 5143 343d 3009 d33b 6b12 0abd 2e4e fcbe
00000090: bbd2 1b3d d9a3 7f3d f9f0 c63e 4e73 cf3b
000000a0: 5e1c 2dbd 96b1 883d 418e e7bb 3fe9 cc3d
000000b0: 929b 183d 1dba 00be 9bf0 dabd 0870 a6be
000000c0: 0768 9abe 5c4d 31bc 9272 d8be d7fd a23e
000000d0: 17e3 d73e 0b2e 9f3e 6385 96be 3b1f 4f3d
000000e0: fea9 833c 4045 52be 1182 8d3c 8d18 1a3e
000000f0: 9049 b9be 831e a93d e2c1 343d c07b eb3d
00000100: 3828 813c 97e0 00be 7d48 6dbe 0504 223e
00000110: c995 8c3d 403b 093e f64a 63be ca36 383e
00000120: c3c7 a03e bc74 b7bd ba23 d63e 352e a5be
00000130: 83fa 9bbe b7d9 6ebe ee28 803e 2e80 cd3e
00000140: ca6c dd3e 9779 3bbe da1f 42bd 7776 9abe
00000150: e243 2c3f 4075 4cbd 5d97 7a3e 5dc9 833d
00000160: d760 183e d6b8 b43c f5b0 26be bda1 4e3e
00000170: 0368 d53e f22c acbd a778 dc3e 4a54 803e
00000180: b330 8cbe f8a6 063f bdff 37be fa30 513e
00000190: 641b d13c 3dca 053f ff49 2bbd 85e8 71be
000001a0: 6ddd b8bd df6e e7be 738a 70bd 19d7 543e
000001b0: d566 903e 5843 593d 41a3 c43e 7a94 b7be
000001c0: 104b 1ebe 69b1 ba3c 5d04 54bd 191d 8a3e
000001d0: 5930 5fbd 0f53 703d de8f 47be 1f63 c8bd
000001e0: d03d 793d 6002 9a3e c92f cc3e 7a5b 44be
000001f0: bc6a febd 07e7 20bf 6892 7c3e d692 f1be
00000200: 41b3 353e 0f99 8b3c f5e2 07bf 0b0d 90be
00000210: e977 263f 2150 353f 7044 9a3e 3322 f13d
00000220: c795 143e 22fe 6b3e da03 8f3c 03e4 dd3d
00000230: 7f28 44bf d152 38bf e1b9 28be 55ae 64be
00000240: 8b19 b03d 3e51 04be d7bf 33bd 00d7 efbe
00000250: f526 85be 4e07 f4be 9570 013f 93e0 9ebd
00000260: 3f3c ebbe 9109 843e bdac 8abe a82d 0f3f
00000270: a31d 99bd 3104 a33e 4831 a0be 2209 5dbe
00000280: 712f 84be 6b4b e9bd 8b36 22bd 7433 01be
00000290: 4a81 97be 12c7 7fbe b3ac 00be 4566 273e
000002a0: ba69 f93d a362 9f3e 8ed9 843e cbbb bb3e
000002b0: 6141 543e c06b 9a3c a774 41be 0cd8 9fbe
000002c0: bae5 babd 0368 063e 64c3 623e 7098 c7be
000002d0: 2731 34bf 6217 2ebf 2ba2 08be 6f1f 793e
000002e0: 3b90 d13e 7a86 6e3e a270 dd3d 4d0a ecbe
000002f0: b538 793e 3713 0c3f 596f 1e3d 2672 0e3d
00000300: 992d 853e 5a6c 873e 6b74 08bf 3ee3 94be
00000310: 8b87 b03e ed77 7b3e caa9 f23e 0853 2a3d
00000320: a151 a13d d0ac b9bd f2ed 41be cbf7 ffbd
00000330: ec3d adbd 4e08 9f3e c8df 3fbe beb4 03bd
00000340: d906 f9bc 865b 293e eadd 743e a2e4 783d
00000350: f241 4cbf 97b1 23bf 1cff b23c dcd0 c8bd
00000360: f3c4 053e 3044 e7be 4c2e 4bbd 2fa3 3bbd
00000370: 140c 603e 8f2a 56be 236e 0c3f 9eb9 aa3e
00000380: 8857 73be 5ec5 85be 3afe 29be 18cb b2bc
00000390: 3acd 4cbd 3f5a 4e3e a3b2 553e 3f92 48be
000003a0: caf7 57be 1367 a8bd 43ad 59bd e7d3 2cbe
000003b0: da9d c23e f11a b33e 9cbf 4d3e 6606 9f3d
000003c0: a2b9 8d3d 83f9 24be eeea 913e 3d09 09bf
000003d0: 62ef d7be 8c5d aa3d 38b9 f83d 488a 163e
000003e0: 70ca 87be a226 b8bd e00f 103e 6726 a2bb
000003f0: 0806 80be a72f fa3d 3bd1 bdbe 3055 80bd
0.05917112 -0.17397214 0.34041452 0.4198951 0.024398895 0.1998882 -0.025720835 -0.2044552
-0.33693177 0.4040819 -0.3213931 0.27138755 0.11718584 -0.1597 0.03981419 -0.27429664
0.117733054 0.16585064 0.37378347 -0.33555257 -0.56687534 -0.6459239 0.04210325 -0.42572385
0.15934715 -0.175363 -0.09484929 0.0895224 0.13541397 0.0029881883 0.15604137 -0.36468422
0.04400951 0.006440304 -0.03370897 -0.49278396 0.038042765 0.062412117 0.38855723 0.006330884
-0.04226338 0.06674497 -0.0070665185 0.10005426 0.03725774 -0.12570997 -0.10690423 -0.32507348
-0.30157492 -0.010821667 -0.4227491 0.3183429 0.42165443 0.31089815 -0.2939864 0.050566893
0.01607227 -0.2053423 0.017273935 0.15048428 -0.36188936 0.08257773 0.044130214 0.11498213
0.015766248 -0.12585674 -0.23172183 0.15821846 0.06864507 0.13401508 -0.22196564 0.1798965
0.31402406 -0.08957812 0.41824132 -0.32261816 -0.30464563 -0.23325239 0.25031227 0.40136856
0.43247062 -0.18308102 -0.047393657 -0.30168507 0.6729108 -0.049916506 0.24471803 0.064348914
0.14880691 0.022060793 -0.16278441 0.20178886 0.41680917 -0.0840701 0.430608 0.25064307
-0.27380905 0.52598524 -0.1796865 0.2042884 0.025525756 0.52261716 -0.041818615 -0.23623855
-0.090266086 -0.45201775 -0.058725785 0.20785178 0.28203455 0.05304274 0.38405803 -0.35855466
-0.15458322 0.022789674 -0.051761974 0.26975325 -0.054489467 0.05867296 -0.19488475 -0.09784531
0.060849965 0.30079937 0.39880207 -0.1917552 -0.12422702 -0.6285252 0.24665225 -0.4718234
0.17744161 0.017040757 -0.53080684 -0.2813495 0.6502672 0.7082539 0.3013034 0.11774101
0.1451026 0.23046163 0.017457891 0.108345054 -0.7662429 -0.7200137 -0.16477157 -0.22332127
0.08598622 -0.12921616 -0.043884125 -0.4684372 -0.26006284 -0.47661823 0.5056241 -0.07757678
-0.45944402 0.2578855 -0.27084914 0.5592904 -0.07476356 0.31839135 -0.312876 -0.21585515
-0.25817445 -0.11391338 -0.039602797 -0.12617284 -0.29590827 -0.24978283 -0.1256588 0.16347606
0.12178369 0.3112994 0.2594723 0.36666712 0.20728065 0.018850207 -0.18892156 -0.31219518
-0.09125848 0.13125615 0.22144848 -0.38983488 -0.703875 -0.6800443 -0.13343112 0.24328397
0.40930352 0.23293486 0.10812499 -0.4610161 0.24338038 0.5471682 0.03868041 0.03477683
0.2601135 0.26449853 -0.5330264 -0.29079622 0.3447841 0.24557467 0.47395164 0.04158309
0.078768976 -0.090661645 -0.18938425 -0.12498435 -0.08459076 0.31061023 -0.1873771 -0.03215479
-0.030398773 0.1653882 0.23912778 0.060764916 -0.79788125 -0.63942856 0.021850161 -0.09805462
0.13063411 -0.4516921 -0.0496047 -0.04580992 0.21879607 -0.20914672 0.54855555 0.3334474
-0.2376386 -0.26127142 -0.16600886 -0.021825358 -0.050000407 0.20151614 0.20868926 -0.19587038
-0.21090618 -0.08222785 -0.05314375 -0.1687771 0.38011056 0.34981492 0.20092624 0.07764892
0.06920172 -0.16110806 0.2849955 -0.5352972 -0.42174822 0.08318624 0.12144703 0.14701188
-0.26521635 -0.089917436 0.14068556 -0.0049484256 -0.250046 0.1221612 -0.37073693 -0.06266248

net.0.bias f4 [64]
00000000: f10a 43be 0887 a03d dc6a c9bd 1627 443d
00000010: 95fe d53d 885b 80be 3831 963e 5e65 30be
00000020: 8101 66be 0711 1f3e 8b9f b63e 6948 c2bd
00000030: 28b0 1dbe bcd7 0bbe 065a 8cbe 508f e9bd
00000040: 1e34 943e af7d b63d c8e2 b33e 5897 9b3e
00000050: 9010 8e3e deb6 d8bd f83c 433c 4bc8 9c3e
00000060: 7b43 103e 462f afbe a9b8 8c3e 9049 01be
00000070: 64a5 7dbe af38 4a3e e9ef 6e3e 5052 eebd
00000080: 22ba b03e 0889 943d 591c 08be f58d 35be
00000090: d476 c9bc c701 3c3e 8971 a33e 1ae5 a6be
000000a0: eff9 20bc a162 053c 2fcb 8fbc 513f b7be
000000b0: e6ba 3d3e 408a 263e 2e87 ef3d 357f 2cbe
000000c0: c58e 033e 4b07 65be 5eed 8c3d cf07 153e
000000d0: 1fe4 b43c 687a 9abe ebcc 03be 99f7 483e
000000e0: f9e8 93bd 4228 d23d 66db a13e ac57 80bd
000000f0: e00b 103e f395 9b3e 04a6 bc3e 7f5a 65be
-0.19047143 0.07838255 -0.09834835 0.047888838 0.10448948 -0.25069833 0.29334426 -0.17226169
-0.22461511 0.15533839 0.35668597 -0.094864674 -0.1539923 -0.13656515 -0.27412432 -0.11404288
0.28946012 0.08910691 0.35133958 0.30388904 0.2774701 -0.10581754 0.011916392 0.3062156
0.14088242 -0.34215754 0.27484635 -0.12625718 -0.24770123 0.19748186 0.23333706 -0.116367936
0.34517008 0.07252699 -0.13292064 -0.17729934 -0.024592794 0.18360053 0.31922558 -0.32596666
-0.009825214 0.008141191 -0.01755294 -0.35790494 0.18528327 0.16263676 0.11695705 -0.168454
0.12847431 -0.22366063 0.06881212 0.1455376 0.022081433 -0.30171514 -0.12871139 0.19625701
-0.072221704 0.10261585 0.316127 -0.06266722 0.1406703 0.3038784 0.3684541 -0.22397803

net.2.weight f4 [4, 64]
00000000: a371 523e ad7f 0a3e 9809 4bbd e934 a8bd
00000010: 6592 3bbe 8f23 d9bd f031 813d b10d 9f3d
00000020: 6bac 90bc 4817 0bbe fca7 5dbe b20e 36be
00000030: fea1 5d3e 476d 3bbd ae89 533d 15da 70bd
00000040: dcc5 33bc c19a 053e e936 66bd 7aaa 7d3d
00000050: bda5 03bd 1169 4f3e 8de1 20bd 488b c5bd
00000060: f47b 483c 6d1b 013d e2e8 023d 0feb 83be
00000070: e520 65bd 2aa3 93bd 1aa2 da3c dcf5 1d3d
00000080: d4a6 58be 763d cbbd 5c20 d53d 8a90 69bc
00000090: c9e4 77bd 09f8 483e 8e8c a73d 40a2 813d
000000a0: 23ce 6bbe 6694 82bd 505f a13d 56b0 ed3d
000000b0: fc92 083d 2fe8 08be 5c4a 113e fe04 11bd
000000c0: cd23 e13d fbd5 a53d 51bb cc3c fa39 b13d
000000d0: 2541 a73d 2568 aa3d efb5 bdbd fbf7 aebd
000000e0: 5e0a e63d cd78 aebd 112c 07be 3276 0ebc
000000f0: e3b3 77bc bf9c 1f3d 3af9 32be 5b7b bfbd
00000100: ab6a 86be 5e89 0cbc 70a1 6d3e 44fa 27bd
00000110: d7b7 b0bd 5df5 b53d 51c0 e63c 28bd 843c
00000120: 6c14 bcbc 2562 8a3d 6b1e 92be 594a a9bb
00000130: 4fd1 4b3c f767 02bd b311 cebb fd61 d13d
00000140: bc2d 8bbe 08ed df3e f7e6 0e3d a640 c8bd
00000150: cd69 303e 8a0e 4bbd f780 ad3e 5c11 0abe
00000160: 129c 2ebe 8f97 043d 6ee4 713e 22ef a6bd
00000170: 7c1d 463b 2381 a4bd 6fed 84bd e6e2 2ebd
00000180: 2cc0 7bbe a854 483d 9ac9 9c3e d25d 8dbe
00000190: bbf4 503d 91a7 463e a1e8 0a3d 4bf3 b6ba
000001a0: cb2d 9dbe 68fa 84bd f8de 8abd 5766 0ebd
000001b0: eb3e 9bbd e358 a6be db25 68bd cd29 5ebb
000001c0: fd0b 083e bf4a 2f3d d82a 933e 206f 74be
000001d0: f11d 9a3e 1690 a4bd 18de 353e fa1a 57be
000001e0: ee2c 943d 1b66 04be a6e4 9ebd b506 48bd
000001f0: 46b7 afbd 72d6 25be 70c7 aebe 9609 6c3d
00000200: 0f9c 0d3d 67bc 49be edd5 e13a 9f15 0d3e
00000210: 79e7 b33e aa19 eb3d c28b 6138 3e6d 46bd
00000220: 7102 57bd c186 483e f856 7b3e 8099 113e
00000230: 4ba7 93be 34df 7f3e a48a 3e3d 39b8 c9bd
00000240: 5fc4 0e3e 09e1 14be 24af a03e ee85 91be
00000250: 3a53 133e 2f2d e9bd 02d9 c53d 6d1d 553e
00000260: 1be2 5c3e a60a 94bd 4f24 b03b 7d9c 733e
00000270: 52d0 84bd b609 a53d e63d 703e e8b3 db3d
00000280: e428 8e3e 992c 743d cb9d 4ebe 5808 1abd
00000290: 096f aabd efe9 62bd a8d2 c73d 9a47 cdbd
000002a0: 1281 793e 5067 dcbc 9637 e73d c6e3 443d
000002b0: 1d97 71be 36c7 233e 85b5 13be 7618 7bbd
000002c0: 2498 80bd fe61 373d eb69 033e fed0 52bd
000002d0: 5a12 d33d 149b bbbb 47f2 233d eea7 0b3e
000002e0: d67d 8cbe c2d9 833c 8148 b03e ad0a 743c
000002f0: 2765 663e 76fb f4bb 701d 273e 7c8b 65bd
00000300: 1984 ec3c cccc f63d 6488 44be db1f c33c
00000310: 74c4 cbbd fb49 b43d 53f1 7f3e b0f0 e63b
00000320: 29b2 a2bb 0253 9cbe 038e c93d 80a4 783d
00000330: 35cb ab3e dc22 29be 32f0 4ebd b852 d7bd
00000340: bd21 6a3e 03bc b2be de4a 83be a668 f43c
00000350: 3117 febd 4fe8 113e ba39 e2be 5af4 873d
00000360: d4ee 493e abb0 7abd 6603 9abe 0416 103e
00000370: f28d 8dbd cf6c 3a3e 883b acbe 870b 6d3d
00000380: 9edc 94bc f2e3 cfbc 41e5 05be db14 713e
00000390: 00e9 16bd 3bc5 1ebd 3b36 05be 9f9f 823d
000003a0: b607 993e 1db7 9d3d fd6f 8c3d 4ee1 b9bd
000003b0: ae8c 6f3d cf6d 8f3d 748f 613e a9f8 7f3d
000003c0: 0bae 24be defc 033e 7011 abbe 5450 b03d
000003d0: cbe8 b5be 7652 983c 6ec8 98be a4a6 6b3d
000003e0: 1254 8ebd 2e11 f9bd ad77 4bbe bc8f 5cbc
000003f0: e38a e33b 78c0 ac3e 9ce3 1f3e f8d7 d83d
0.20551161 0.13525267 -0.049569696 -0.08213217 -0.18317564 -0.106024854 0.06308353 0.07766283
-0.01766034 -0.135831 -0.21646112 -0.17779043 0.21643826 -0.045758512 0.051644973 -0.05880173
-0.010972466 0.13047315 -0.05620471 0.061930157 -0.032140482 0.20254923 -0.039277602 -0.096457064
0.012236584 0.031520296 0.031960376 -0.25765273 -0.055939574 -0.072088555 0.026688624 0.038564548
-0.2115739 -0.09923832 0.10406563 -0.014255652 -0.06052092 0.19625868 0.081811056 0.06329775
-0.23027854 -0.06375961 0.078795075 0.11605899 0.0333433 -0.13369821 0.14188522 -0.03540515
0.109931566 0.08097454 0.024991663 0.08653636 0.08166722 0.08320645 -0.09263217 -0.08543392
0.11232446 -0.08519135 -0.13200404 -0.008695172 -0.015118572 0.038967844 -0.17477885 -0.093497
-0.26253256 -0.008577673 0.23206115 -0.041010156 -0.08628815 0.0888469 0.028167875 0.016203478
-0.022958957 0.06757001 -0.28538832 -0.0051663336 0.01244004 -0.03183743 -0.006288731 0.10223768
-0.2718333 0.43735528 0.034888234 -0.09777956 0.1722786 -0.049574412 0.33887455 -0.13483185
-0.17051724 0.0323711 0.23622295 -0.0815108 0.0030229976 -0.080324434 -0.06490599 -0.042696856
-0.24585027 0.04890886 0.3062256 -0.27610642 0.051014643 0.19399859 0.03391326 -0.0013958005
-0.30699 -0.06493074 -0.06780809 -0.034765568 -0.0758036 -0.3248969 -0.056676727 -0.0033899427
0.13285823 0.042795893 0.28743625 -0.23870516 0.30100968 -0.08035295 0.17760503 -0.21006384
0.07235132 -0.12929575 -0.07758455 -0.04883452 -0.085798785 -0.16195086 -0.34136534 0.05762633
0.034572657 -0.19700776 0.0017229893 0.13777779 0.35137537 0.114795044 5.377434e-05 -0.048444025
-0.052492563 0.19582655 0.24544895 0.14218712 -0.28838572 0.24987489 0.046518937 -0.09849591
0.13942097 -0.14538969 0.31383622 -0.28422493 0.14387217 -0.11385571 0.096605316 0.20812006
0.21570627 -0.072285935 0.005375422 0.23790164 -0.064850464 0.08058493 0.23461112 0.10727674
0.27765572 0.059612844 -0.2017738 -0.037605613 -0.083219595 -0.055398878 0.09756976 -0.100234225
0.24365643 -0.026904732 0.11289899 0.048068784 -0.23592801 0.15993962 -0.14424713 -0.061302625
-0.062790185 0.044771187 0.12833373 -0.05146884 0.10306235 -0.005725274 0.040025976 0.13638279
-0.27439755 0.016095046 0.34430316 0.014895123 0.22499524 -0.0074762655 0.16319823 -0.056041226
0.028871583 0.12050781 -0.19192654 0.0238189 -0.0994958 0.08803173 0.24994402 0.007047735
-0.004965086 -0.3053208 0.0984154 0.060703754 0.33553472 -0.16517204 -0.050522037 -0.10513824
0.22864433 -0.34909067 -0.25643057 0.029835057 -0.12406767 0.14248775 -0.44184667 0.06638403
0.19720012 -0.06120364 -0.30080718 0.14070898 -0.069118395 0.1820557 -0.3363917 0.05787232
-0.018171605 -0.025377247 -0.13075735 0.23543112 -0.0368433 -0.038762312 -0.13008969 0.063781016
0.29888695 0.07700942 0.068572976 -0.090761766 0.058483772 0.07003366 0.2202738 0.062493
-0.16082017 0.1288943 -0.3341174 0.086090714 -0.3552917 0.018594008 -0.29840416 0.057531968
-0.06949629 -0.1216148 -0.19869871 -0.013462003 0.006944047 0.33740592 0.1561417 0.10588068

net.2.bias f4 [4]
00000000: aab0 9d3c 50b1 b73c d481 ee3d 3795 4abd
0.019249279 0.022423416 0.116458565 -0.04945871
